trained parameters/matching_network_miniimagenet_5shot_5way_15k.pt (torch, 546639 bytes, 24 tensors)

encoder.0.0.weight f4 [84, 3, 3, 3]
00000000: 4350 82bd 214a 793d 7345 32bd 3935 38be
00000010: 8914 3abe 6fcf 9c3d 3785 003e c6a7 eabd
00000020: 0b71 813d def0 42be 9ff5 803e fe0e 08be
00000030: 4a99 523d cd67 253e 9a31 833c 44f3 213c
00000040: 499c 073e a4c4 94bb b4ec 483d a90b 713f
00000050: 66c2 4f3e 9d77 7c3e 140e e53e e3dc 3c3e
00000060: e3fc 773e da9a bf3e 9693 063d c82e 8dbe
00000070: eddd a43c a5b3 16be 5444 213e 5bcb 993e
00000080: db59 383d c0d6 9ebe 9df3 5c3e 614b 8fbe
00000090: cbc6 8b3b a1a4 1abb 4339 4ebe e5a5 8a3d
000000a0: 3aef 983e 91dc 093e 94b1 2f3d 2c47 81bd
000000b0: 2a15 29be 1ac5 42bd 28ac b7bc 5771 b0bd
000000c0: 46f0 4d3d 58ff 5b3a fb55 bc3d 1a2f 59bb
000000d0: 57bd bdbd bf75 553b 41e3 66be 7179 93be
000000e0: 9218 17bd 6e5c 473b be45 06be 4fab 663e
000000f0: c82a e83c 4453 47be 95d9 b33e 2508 06be
00000100: 8172 a4bc 9207 f43d bf4b 3cbb c3be 873d
00000110: df9b b93e f073 8dbd 835b 21be 3066 983e
00000120: a54e 423d 15b4 5cbd 7abc ca3d b460 863c
00000130: bb7d 2bbe ad76 3dbe c310 aa3d 08db 303d
00000140: dd13 17be 3cd6 42be 2a3b d63d 1706 42be
00000150: 3153 8b3d 1845 ab3e 2f4c e53c 08e3 283e
00000160: 93d3 903e b455 61be b916 dbbd bba1 1e3e
00000170: 942a 89be 41ba 57be f751 253e 53b9 d2bd
00000180: 5ace 2abd a587 20be 0b12 8bbe 29b8 213e
00000190: 4f4b 693e e691 e13d d2e6 e8bd 6555 e93c
000001a0: 4477 d2bd 7722 893d 11d3 653e cb8c 16bd
000001b0: 1e3d fcbd fb19 323e 9ca0 06be 08a9 be3d
000001c0: 5562 66be eb7a 92bd 09a0 01be 7edb 42be
000001d0: 4741 9fbb 697e 1dbe bd28 9c3e 2d71 2d3d
000001e0: 59d1 8a3d 6a20 193d ed15 a03d 457a 2d3e
000001f0: 0dcc 31ba 9b3e 343e 2f8e 203c c9eb ac3e
00000200: 3454 1bbe 5d98 653e 5595 98be d078 d13d
00000210: 189f e3bd e165 29be 7fe7 56bd 286d ee3d
00000220: d967 143e 0d0a 1c3d 3128 01be 854e 18be
00000230: a204 2e3e 2e42 403e 467f 193e edbc debd
00000240: 2c17 9fbe 2899 bb3c a594 03be 3339 fa3c
00000250: e202 adbe dbbc 34be 4478 c8be 425e 5bbe
00000260: b191 dfbd 28e8 443d 7888 253e 8d34 fdbc
00000270: 2a12 843e 67b4 8f3e 270b 583d 3f86 e23c
00000280: d095 d2bc a177 cc3d ca3c 883e ce0b 29be
00000290: 3c18 f3bd 8f01 433d 795c 9a3d af44 69bc
000002a0: 98df 8fbe 582f c13d bfdb eb3d de14 8c3e
000002b0: 9284 143d f6fe 1eba fd71 99bb 2de0 a83d
000002c0: 5723 e6bd 0a7f 6cbe 6759 883d b24f 353e
000002d0: 7eeb 633e fb88 693d deeb 97be 3311 383c
000002e0: a2e3 febd d3f1 2c3e d080 afbe e09e 09be
000002f0: f6fe 013e 2d4d d2bb f117 99bd 4dd0 1d3d
00000300: a149 aabe 8608 3dbe f4a8 a0bd aa3c c7bd
00000310: 730a 7abe db6e 44be d68a 123d dfea 5dbd
00000320: ec4a 473e 4d63 39be b0e4 063e aad2 26be
00000330: 46c4 863d a2d3 d53c 00e6 363e ead7 2b3e
00000340: c867 bb3d 5292 843e ace3 ecbb 60e9 943e
00000350: 15fc 5c3e 372d 4a3e 1e1f 913e 68d1 7c3e
00000360: f433 fc3d d18b 19bd 2a77 2e3e eb5d d8bc
00000370: 4a54 95bd ee87 42be 073f a13e dc2e f2bd
00000380: ac22 52be 577f 2f3e 8dee 533e bede 20be
00000390: 90da 663e b65e 16be c5bf 5abd 4add 0b3e
000003a0: e0a1 923b fa24 b5be c659 0fbe 0de0 32bc
000003b0: b1a8 b2bd 3f29 6e3d cace 053e 07b7 84bd
000003c0: 2d80 703e 501b d9bb db5f 9abe dcf0 333e
000003d0: 885d 30be ca50 9bbe 1a20 283e 58a5 2f3c
000003e0: 5eb7 8cbd 2d56 393e 7585 b63d 6a28 013e
000003f0: e92a 2abe 0d2b 0a3c 8a68 8b3e 9da8 2ebe
-0.06362965 0.06086171 -0.043523263 -0.17989053 -0.18171896 0.07656752 0.12550817 -0.114577815
0.06320389 -0.19037196 0.25187394 -0.13286969 0.05141572 0.16152878 0.016014863 0.009884659
0.13243212 -0.004540043 0.049053863 0.94158417 0.20289001 0.24655004 0.44737303 0.18443637
0.24217562 0.3742283 0.032855593 -0.27574754 0.020125354 -0.14716966 0.15748721 0.3003796
0.045007568 -0.31023216 0.21577306 -0.27987197 0.0042656413 -0.0023596662 -0.20139031 0.06769923
0.29870015 0.13463046 0.04289396 -0.06312403 -0.1651198 -0.047551252 -0.022420958 -0.08615368
0.05027797 0.0008392236 0.09196087 -0.0033139647 -0.09264629 0.0032571403 -0.22547628 -0.2880359
-0.036888666 0.0030420083 -0.13112542 0.22526287 0.028340712 -0.19465357 0.3512694 -0.13089044
-0.020074131 0.119155064 -0.0028731672 0.06628182 0.36251733 -0.06906879 -0.15757565 0.29765463
0.047438283 -0.053882677 0.0989923 0.016403534 -0.16747181 -0.18502302 0.08303978 0.043177634
-0.14753671 -0.19027036 0.104605034 -0.18947636 0.06802977 0.33451152 0.027990429 0.16492856
0.28286418 -0.2200535 -0.106976934 0.15491383 -0.26790297 -0.21067144 0.16144548 -0.10289254
-0.0417007 -0.15676744 -0.27162203 0.15792908 0.22782634 0.11014156 -0.113721505 0.028483102
-0.10276654 0.06696027 0.22443797 -0.036755364 -0.12316345 0.17392723 -0.13147205 0.09309584
-0.22498448 -0.07152351 -0.12658705 -0.19029042 -0.0048600766 -0.15380253 0.3049983 0.04234426
0.06778211 0.037384428 0.07816682 0.16941173 -0.000678242 0.17602007 0.009799524 0.3377364
-0.1516884 0.22421403 -0.2980143 0.10228121 -0.11114329 -0.1654277 -0.052466866 0.11641914
0.1449274 0.038095523 -0.12612988 -0.14873703 0.16993955 0.18775246 0.14989957 -0.108758785
-0.31072366 0.022900179 -0.12849672 0.030544853 -0.33791262 -0.17650168 -0.39154255 -0.21422675
-0.1091646 0.048072964 0.1616534 -0.030908847 0.25795108 0.28067324 0.05274501 0.027651904
-0.025706202 0.09983755 0.26608878 -0.1650841 -0.11869857 0.04760891 0.07537169 -0.014237567
-0.28100276 0.09432858 0.115165226 0.2735967 0.03625924 -0.0006065214 -0.004682778 0.08245883
-0.11237209 -0.23095337 0.06657677 0.17706183 0.22257802 0.0570154 -0.2967214 0.011234569
-0.12445761 0.16889124 -0.34277964 -0.13439512 0.12694916 -0.0064178915 -0.074752696 0.03852873
-0.332593 -0.18460283 -0.07844725 -0.097283676 -0.24418049 -0.19182913 0.035776936 -0.05417907
0.19462174 -0.18104286 0.13173175 -0.162913 0.06580405 0.026101891 0.17861176 0.16781583
0.09150654 0.25892884 -0.007229289 0.290843 0.21580537 0.1974381 0.28344053 0.24689257
0.12314597 -0.037486855 0.17037645 -0.026411971 -0.072914675 -0.18997166 0.314934 -0.11825344
-0.20521039 0.1713842 0.20696469 -0.1570997 0.22544312 -0.14684567 -0.053405542 0.13658634
0.0044748634 -0.35379773 -0.1399909 -0.010917676 -0.087235816 0.058144804 0.13067165 -0.06480222
0.23486395 -0.0066255704 -0.30151257 0.1757235 -0.1722318 -0.30335075 0.16418496 0.010720573
-0.06870912 0.1809928 0.08912174 0.12613073 -0.16617931 0.008433116 0.27228194 -0.17056508

encoder.0.0.bias f4 [84]
00000000: 6396 ed3d 52e0 9fbd 9601 433e f7c2 f33d
00000010: e72d a4be 9a44 01be 4fda d3bd 3942 9b3d
00000020: ff81 d73d 0ef7 083c a51e 42be 679d ed3c
00000030: 21d2 173e 44b2 02be 54a3 913d 854b 323d
00000040: ddd6 833d 91a0 03bd a478 40be b440 593d
00000050: 8603 753d 46e1 063e f860 7d3d e205 c63d
00000060: 2872 8c3d 0fad 7b3c 19a5 243e 457c 9e3d
00000070: 9e53 273e 3ce5 4a3e af66 09be b5be adbd
00000080: 1f14 2f3e dccf 9d3d 9f55 cdbd b8f9 ce3d
00000090: 6f34 b63d 0e6f 2cbe 8e51 263e 1955 633d
000000a0: 8347 003d c27f 21be 0b7b 343e e768 163e
000000b0: 5789 02be 6081 813c c4c9 14be 687b 763d
000000c0: c28c bb3d dc49 fc3d f486 08bd f38a fabc
000000d0: e45f 29be f5a3 48bc 6004 433d 13a4 2fbe
000000e0: 8256 30be 09cf f53c 353a 4ebe 4523 cabd
000000f0: 84dc 3abe 6eb0 283e 1ff9 20bd 0cee bcbe
00000100: 7627 013d b25c 0f3e e8f1 903c 59df e9bd
00000110: 0f6e fe3d f438 58be d5f9 a93d fc6a f43d
00000120: 63cc 8b3d 10c0 3bbe b2d2 f2ba 4a00 a73d
00000130: d5f6 1a3d 0b1d d1bc 7938 523e 9c55 1c3e
00000140: a413 d53d 225f 823d 4075 24be d03b eb3d
0.116009496 -0.078064576 0.19043574 0.11902421 -0.3206627 -0.12623826 -0.103443734 0.0758099
0.10522842 0.008359684 -0.18957002 0.02900572 0.14826252 -0.12763315 0.071112305 0.043529052
0.06437466 -0.03213555 -0.18796021 0.05304022 0.059817813 0.13171872 0.061860055 0.09669091
0.06857711 0.015361085 0.16078605 0.07738546 0.16340491 0.19814008 -0.13418077 -0.0848364
0.1709752 0.07705662 -0.100260966 0.10106224 0.0889672 -0.16839239 0.16242048 0.055501077
0.0313182 -0.15771392 0.17625062 0.14688455 -0.12747703 0.015808761 -0.14530092 0.060176283
0.09157707 0.12318775 -0.033331826 -0.030583834 -0.16540486 -0.012246122 0.047611594 -0.17152433
-0.172205 0.030005949 -0.20139392 -0.098700084 -0.18248183 0.16473553 -0.03930008 -0.36900365
0.031531774 0.14000204 0.017693475 -0.11419553 0.12423336 -0.21115476 0.08299605 0.11934468
0.06826093 -0.18334985 -0.0018525927 0.08154352 0.037833054 -0.025526544 0.20529355 0.15267032
0.10404137 0.063658014 -0.16060352 0.11486018

encoder.0.1.weight f4 [84]
00000000: 1ab2 353f b6bc 903f 81cc 7d3f e640 443f
00000010: 17ac 823f 073e 553f 38fd 513f f5d2 393f
00000020: 6bb3 4d3f a991 323f 4804 793f 0762 283f
00000030: b3d1 803f 3455 4c3f 67fa 3b3f 0054 733f
00000040: b27c 443f bff3 6a3f 1670 383f c282 3d3f
00000050: de01 3c3f bb6d 653f 111b 533f f53e 953f
00000060: c176 793f c3da 8b3f e59d 463f 3f93 663f
00000070: a2d8 323f 66c9 733f cd09 593f dedb 5a3f
00000080: 9c81 813f ff9e 803f 3ef6 793f 14c2 663f
00000090: f1b7 3b3f 147f 8c3f 8376 9e3f c990 3d3f
000000a0: 2fdf 7a3f 854d 813f c94e 033f 2cd6 123f
000000b0: c13e 343f acaf 893f 140e a03f c1b6 543f
000000c0: 9acc 893f b4c5 5a3f 37e7 653f 7825 6d3f
000000d0: 21c0 793f e400 613f c6ff 703f e4db 3d3f
000000e0: c71b a83f 7aa0 403f 2c5b 3d3f 0525 8c3f
000000f0: 1d33 703f c9d2 7e3f 2008 603f 12b6 9d3f
00000100: 8d1d 203f 9ef6 8b3f bbf5 6b3f 8d23 6c3f
00000110: 80da 6f3f 2611 513f 10c9 7c3f e567 563f
00000120: 08eb 673f dd07 423f ce2c 883f 82f6 3c3f
00000130: eb2c 543f 2b45 643f 2a51 753f f509 ac3f
00000140: 9eea 613f 2d17 733f 9416 473f 4de6 393f
0.70974886 1.130759 0.99140173 0.7666153 1.0208768 0.8329777 0.82027006 0.7258752
0.80351895 0.6975351 0.9727216 0.6577458 1.0063995 0.7981751 0.7342896 0.9505005
0.7675277 0.9177818 0.7204603 0.74027646 0.7344035 0.8962056 0.82463175 1.1659838
0.9744683 1.0926136 0.7758468 0.9006843 0.69861805 0.95229185 0.8478058 0.8549174
1.0117679 1.0048522 0.9764136 0.9013989 0.7332755 1.0976281 1.2379917 0.7404905
0.979968 1.0101782 0.5129209 0.5735805 0.70408255 1.0756736 1.2504296 0.8309136
1.0765564 0.8545792 0.8980593 0.926353 0.9755879 0.87891984 0.9414028 0.7416365
1.3133477 0.7524487 0.7396724 1.0948797 0.9382799 0.9954038 0.875124 1.2321188
0.6254509 1.0934637 0.9217183 0.92241746 0.9369278 0.8166679 0.987443 0.8375228
0.90593004 0.7579325 1.0638673 0.7381364 0.8288104 0.8916804 0.9582697 1.3440539
0.8824862 0.9495724 0.77768826 0.72617036

encoder.0.1.bias f4 [84]
00000000: 06fe babe 557b 4f3e d532 d13e 13b7 033e
00000010: ff0f b33e 96bc 9dbe 2c77 273e 3be5 06bf
00000020: ead4 0a3f 280d 8bbd 9671 91be 2e58 643e
00000030: 9a01 eabe 68e6 d0be 6290 f9be ad74 df3d
00000040: 4c08 d5be 80a8 a1be 3414 c53d 9658 8fbe
00000050: d937 41be 590b 993e a833 cfbd e14e 593f
00000060: 384a 86bd 33b9 e93d 9d51 d0be 8729 cc3d
00000070: 64cc 5ebe 49e5 973e 431a 37be 514e 1e3f
00000080: 808b 243f e7d5 433f 464d a53e 746c 1c3e
00000090: c6bf 11be 2349 cdbd c9d9 813e 8b6f 82be
000000a0: 6920 a83e 7b19 49bd 3a40 513e 71f0 81be
000000b0: 7e85 aabd 4f5c de3d a7c0 e1be 3aba 8e3f
000000c0: a6a5 bfbc 3f5c afbe c80e b4be d040 363f
000000d0: 19f3 1fbe 7b1b 98be eea6 02be c8e9 34be
000000e0: 9ed2 8e3c 2416 fcbe 2ed3 b3be c4fa 8a3c
000000f0: 8c52 9e3d 61ff 4a3d ffa5 7bbe 899d a83d
00000100: 47a9 e6be 8988 a639 4908 ce3e 67a1 98be
00000110: c97b 073e ad32 b1bc b337 f3bd 0532 afbe
00000120: 0d95 cfbe 0590 8dbe eacd a93e 096b 13bf
00000130: e65b e5be 0d36 c63e 1aa2 143f 536e 0b3e
00000140: f19e abbb f03f b3be af88 adbe 5d81 71be
-0.3652193 0.20261891 0.40859094 0.12862806 0.34973142 -0.30807942 0.16354054 -0.5269353
0.5423113 -0.06789619 -0.28406972 0.22299263 -0.45704347 -0.40800786 -0.48742968 0.10910926
-0.41607893 -0.31573868 0.09622994 -0.27997273 -0.1886896 0.2989147 -0.101172745 0.84885985
-0.06557125 0.11412277 -0.40687266 0.09968858 -0.21757656 0.29667118 -0.17881112 0.6183825
0.6427536 0.76498264 0.32285517 0.15275747 -0.14233312 -0.10023715 0.2536147 -0.25475726
0.32837227 -0.049096566 0.20434657 -0.25378755 -0.08326243 0.1085745 -0.44092295 1.1150582
-0.023394417 -0.34250066 -0.35167527 0.71192646 -0.15620078 -0.29708466 -0.12758991 -0.17667305
0.017434414 -0.49235642 -0.35122055 0.016965277 0.07730588 0.049559955 -0.24575041 0.082331724
-0.45051023 0.00031763714 0.40240696 -0.2981064 0.13230814 -0.02163061 -0.11875858 -0.3421785
-0.40543404 -0.2764894 0.33164912 -0.575852 -0.44796675 0.38713112 0.5805985 0.13616304
-0.005237453 -0.35009718 -0.33893344 -0.23584504

encoder.0.1.running_mean f4 [84]
00000000: 3df5 903f 23f4 3fbe 56dd 233e d36a 1c3e
00000010: 5a3e a9be 03de 9cbe eb8c afbd 6c5b 8b3e
00000020: c12f ed3c 04d1 9abd a3f0 c4bf d744 69be
00000030: 4e71 3d3e bf4b 3fbf 22b2 0fbf 3bd8 1bbe
00000040: 98ba 9c3d fccd c0bf d247 8bbe 8e1c 4a3e
00000050: 6e52 8cbd 92af 243e 22e3 ecbe aed3 b63d
00000060: 6e11 0c3d f237 82bc e6e0 afbe 9530 f4bb
00000070: e4ff f43e 7e63 263e 8dd9 9a3e d6a5 75bd
00000080: e24f 053e 4621 d53b 4489 37be 672e 0b3e
00000090: 5568 973d 1154 5cbe 6205 863e 6e5d 643f
000000a0: 582e 633c e11f ebbd 64fc 333e b1e2 b63e
000000b0: 49e0 39be 05ed a1be 31b8 23be 8648 2d3c
000000c0: 6164 c13d 91ce cb3d 2aa5 85bf d336 73bc
000000d0: 0a72 0bbf 2d23 7abe ec3c b1be 2038 513e
000000e0: b737 32be d843 cfbe 5d89 adbd 5820 f2bd
000000f0: 77ed 66be 4682 2dbe 5758 c3bd 293f aebe
00000100: 6123 963e 7f5f fb3d 2177 62bb 094c f7bd
00000110: f832 a23d d062 13be d3e2 41bd 8a25 453e
00000120: a62e 18bd 572e 2e3f 42b4 97bd 26ef 55bf
00000130: 5d8a 59be 7ed0 8abd c8bd 833e e5ac 1d3e
00000140: 146a 323e 21ac bb3d 4247 16be b26b 5dbd
1.1324841 -0.18745475 0.16002402 0.15275125 -0.33055383 -0.30638131 -0.085718 0.27218187
0.028953435 -0.07559398 -1.5385936 -0.22780167 0.18500254 -0.74724954 -0.56131184 -0.15219204
0.076527774 -1.5062861 -0.27203232 0.19737455 -0.0685166 0.160826 -0.4626704 0.089270934
0.03419631 -0.015895817 -0.3435127 -0.0074520805 0.4785148 0.16248891 0.30244103 -0.059972607
0.13018754 0.0065042106 -0.17923456 0.1359192 0.07392947 -0.21516444 0.26175982 0.8920506
0.01386603 -0.1148069 0.17576748 0.35719827 -0.18151964 -0.31626144 -0.15988232 0.010576373
0.09442974 0.09951509 -1.0441029 -0.014844614 -0.54470885 -0.24427481 -0.34616792 0.20431566
-0.17404066 -0.40481448 -0.084734656 -0.11822575 -0.22551523 -0.16944227 -0.09538334 -0.34032562
0.29323867 0.12274074 -0.003455587 -0.120750494 0.07919878 -0.14393163 -0.047335457 0.19252601
-0.037153862 0.6803946 -0.07407428 -0.83568037 -0.21244188 -0.06778048 0.2573073 0.15397985
0.17423278 0.0916369 -0.1467562 -0.054057784

encoder.0.1.running_var f4 [84]
00000000: a052 083f 1a6c 903c b12c ac3c 68c3 ad3c
00000010: 8526 583c 36d5 c93c 1e41 7a3c d23e fe3d
00000020: e76a 133d 6de6 953c 8522 123f 5400 193d
00000030: b89a ab3b 4544 133e ad9d 453e a31e fa3c
00000040: c902 a93c 1fdc 3b3f f68a 8b3c 69ff ce3c
00000050: b47c 4d3c 4b93 333d 88ec 443e ae29 983c
00000060: 7780 5c3c 9731 313c 015a f33d 9b33 163d
00000070: b808 543d e761 133d 951f b03d abe4 0f3d
00000080: b3bb a83c c6f0 193d f76d 953c 0d83 eb3c
00000090: 7399 3a3c 9728 e93b dc73 963c 6725 7c3e
000000a0: 7747 193d ea6d 7d3c 2eb7 c13c ba24 d43c
000000b0: 7bed 953c 8dab 553d 3ab0 403b b027 d23c
000000c0: 6046 7c3b 16bd 1c3d 235a 093f 1b4f bc3c
000000d0: e0fa 573d 8bdc 093d e449 f03d 2405 993d
000000e0: 1520 533d ac72 c33d f0ea 943d b2dc b93b
000000f0: 60ce 9d3c 0c0f ed3d ada6 8d3c bac5 a73c
00000100: 02a3 9c3d b3b5 2c3c e710 043d 0c3b 5c3c
00000110: 23f9 153d 29a4 393c 1a64 d93c f38b 633d
00000120: 8ea6 973c d309 bf3e 5b04 5e3d b1fc 923e
00000130: 2f2b 5c3d 1b5c 333c 2469 113d d963 083c
00000140: 8831 4d3c a275 4f3c 19c4 173c bb95 ae3c
0.53251076 0.017629672 0.021017404 0.021211341 0.0131927775 0.0246378 0.015274314 0.12414326
0.035990622 0.018298352 0.5708392 0.03735383 0.00523695 0.14381512 0.1929843 0.030532187
0.02063121 0.73382753 0.017034035 0.025268273 0.012541939 0.04384164 0.19230855 0.018574562
0.013458363 0.010815046 0.11882401 0.03667031 0.051766127 0.03598204 0.08599774 0.035130184
0.020597314 0.037583135 0.018240912 0.028749013 0.011389124 0.0071154344 0.018365793 0.24623643
0.03742167 0.0154681 0.023646917 0.025896419 0.018301716 0.052165557 0.0029401914 0.02565369
0.0038494095 0.038266264 0.5365316 0.02298694 0.052729487 0.03365759 0.117328435 0.074716836
0.051544268 0.09543356 0.07271373 0.005672061 0.019263446 0.115751356 0.017291391 0.020480026
0.07648279 0.010541367 0.03224268 0.013441812 0.03661455 0.011330643 0.02653699 0.055553388
0.018512037 0.37312183 0.054203372 0.28708413 0.05375212 0.010947253 0.03550066 0.008324587
0.012524016 0.012662323 0.009263062 0.021311631

encoder.1.0.weight f4 [84, 84, 3, 3]
00000000: 6f92 fabb c892 ce3b 03a9 ba3c ab58 973c
00000010: 130a 563c 063d b53d bfac 8b3d 9c5a f03d
00000020: f0bc e33d 05a7 89bc e605 3d3d 532a 983d
00000030: e4e0 9cbc 8eb8 cd3d 1c3d 433e d91d d8bc
00000040: e278 e13d 87b4 a73d 2854 853c 73c4 07be
00000050: a606 36be 2980 bfbd 15a9 bcbd 7647 62bc
00000060: c1e2 76be fa4c 8bbe ba7e fbbc 7f21 183e
00000070: f556 953e 3a60 3c3d 3671 4d3e f95f 863e
00000080: cc0f 4e3c aa34 6f3d 4145 4c3e 87a2 03bd
00000090: 898d e93a a5ee 2abc 2e94 593c d25f cbbd
000000a0: a49e 41bd 02b5 b03d d531 46be 327b 85be
000000b0: c0b5 863b 5a9e 2bbe dba3 bbbd 836b 79bc
000000c0: d71c 76be e206 30be 8b53 04bd 46fe 22be
000000d0: b571 e5bd 077a c3bd ffae 94bd 6aeb 0b3d
000000e0: c64e 763a c6d0 1fbd 804c d7bd 1051 c1bc
000000f0: b942 b2bd af7e 59bd 7f0c 733d d170 b0bd
00000100: fae8 febd 2bef c4bd 534b 19bd f9c5 05be
00000110: 940e 81bd b7c1 61bd c2db 9bbd 34fe bf3c
00000120: c2c1 573d bcca 8c3e 6ff7 183e 33e9 0bbb
00000130: f3c4 563e d49a 1c3e b6aa 0fbe 232d 453d
00000140: 2467 843b 12db 87bd 0a83 c93d 2f5f d93c
00000150: b7ea 0e3d 2d9d 6a3e 6807 753d 7088 d63d
00000160: ea12 963e 3242 353e 9ad9 61bd d0b6 373e
00000170: a8f0 853e 1cda 0bbd f06d f03d 1131 873e
00000180: 15c5 f43c 42cb c83d 0e19 423e b9c6 9ebd
00000190: 5267 cfbd adf0 1fbd 450c 22be 1eb7 ebbd
000001a0: 51bc 6f3d 6b65 3abe d38c d0bd 44de b13c
000001b0: fa59 04be 4ec4 4dbe f7b3 c6bd 14dc c5bd
000001c0: e3cf 6abe aa64 2ebd 2135 e4bd 14e8 babd
000001d0: 85c9 57bc 87ee cbbd 5df6 c5bd 5db2 853d
000001e0: fdff 10be 6f73 23bd ee3a 013e 9f7a 2dbd
000001f0: eec6 71bd e9b7 eb3d 9e36 cabd c1fd 373d
00000200: 0119 b83d 64d7 a5bd c131 afbc 12e1 743d
00000210: b167 413d 9509 8d3d 2b92 163d 4bfb edbd
00000220: 10ac 02bd 06db 453d 2be2 32be 1121 b7bd
00000230: 583a a5bc 2b3d 4cbe 42e0 81be 72bb 09bd
00000240: 92db 4bbe 04d2 3ebe 5647 5abe d346 b3bd
00000250: 6215 1fbe 2c61 1bbe aca9 323d bdd2 2ebc
00000260: 75c8 08bc 2b98 1b3b ee68 7c3d 00a9 593e
00000270: d3a8 cabc 70a4 863d 7940 3b3e 0330 35bc
00000280: d445 153e 25f3 2f3e c8b5 75bd b0b2 3f3c
00000290: b33b 4dbd 30a1 88bd b1ee acbd 198f f0bd
000002a0: 442f 7ebc 9a3f 0a3d 43fb d5bd 621b 9bbd
000002b0: bcc2 fdbd 0be7 7dbd 5e44 a9bc d798 e6bd
000002c0: 93af 7abd d763 023d aa71 483d e223 f53c
000002d0: d41c dabd 408e 0dbd 0d19 b7bb b242 25bc
000002e0: c914 e33c 7351 b03d 25eb 7cbc 64d5 e83d
000002f0: afd5 113e dc93 23be e9c7 86bd 86a2 87bd
00000300: 0965 de3d 2d8d 333e 0cbb 2d3e 7636 5e3e
00000310: b331 a73e 418a 843e 4e9d 0fbe ce8c 1bbe
00000320: 50eb d6bd be39 9abd 92c3 f1bd ad38 89bd
00000330: a5cf 4bbd 1138 aabc 9386 0a3a 5d40 5bbe
00000340: 89ff 0e3d 37bb 4e3d c000 40be 6a6d 6ebd
00000350: b147 e43d f7af 84bd dd75 2cbe 0ef5 a8bd
00000360: eee6 1b3e 86bd 9f3e 53e4 2d3e 50cb 4d3e
00000370: 0d75 a93e 63a8 4f3e f6d8 34bb 9e6e 703e
00000380: 60c1 603d 76e0 5e3d d2be aabd 70a0 54bc
00000390: eea0 d0bd c5c0 86bd fd5b 7d3d ea8d 29be
000003a0: 2752 2ebe dfa9 b8bc 230c 58bd 3c77 ad3d
000003b0: 84e1 533e 9909 8dbd 4c1a e93d e5c5 353e
000003c0: f530 7abd 07b5 c73d 9c9a 1d3e d4ed b83b
000003d0: e52d 9e3e daa7 c43d bbd4 2f3e 6aef f13e
000003e0: 65e5 713e e624 c83d 607c e53e 3b0e 853e
000003f0: d0f4 48be ca51 acbd 322a 68bc 31b9 afbd
-0.007646851 0.006304119 0.02278567 0.018474897 0.013063925 0.0884953 0.06820058 0.11736032
0.11120021 -0.016803274 0.046148203 0.07429948 -0.019150205 0.10044967 0.1906628 -0.02638142
0.11009385 0.0818873 0.01627548 -0.13258533 -0.17775974 -0.093506165 -0.09211937 -0.013810983
-0.24109937 -0.27207166 -0.030700076 0.14856528 0.29167905 0.045990206 0.20062718 0.26245096
0.012577008 0.058399834 0.19948293 -0.03213742 0.001781867 -0.010432874 0.013279958 -0.09930386
-0.047270432 0.086282745 -0.19354947 -0.26070553 0.0041110218 -0.16759625 -0.09162112 -0.015223387
-0.24034439 -0.17190126 -0.032306235 -0.1591731 -0.112033285 -0.09544759 -0.0725994 0.034160055
0.00093958934 -0.03901746 -0.10512638 -0.023598224 -0.087041326 -0.05309933 0.05933809 -0.08615268
-0.124467805 -0.0961593 -0.03742535 -0.13063802 -0.06301609 -0.05511638 -0.07610275 0.023436643
0.052675016 0.27498424 0.14938138 -0.0021348714 0.20973568 0.15293437 -0.14029965 0.04813875
0.0040406156 -0.06633581 0.09839447 0.026534645 0.03489181 0.2291152 0.059821516 0.10475242
0.29311305 0.17701033 -0.05513916 0.17940831 0.2616017 -0.034143552 0.11739719 0.26404622
0.029879132 0.09804393 0.1895487 -0.07752747 -0.10127129 -0.039047886 -0.15824993 -0.11509536
0.058529202 -0.1820275 -0.1018311 0.02171243 -0.12924948 -0.20094416 -0.09702294 -0.09661117
-0.22930865 -0.04257647 -0.11142946 -0.09126297 -0.013170605 -0.09957605 -0.09666131 0.06528161
-0.14160152 -0.039905008 0.12620136 -0.04235327 -0.059027605 0.115096875 -0.09873699 0.044919733
0.08989144 -0.08097723 -0.02138603 0.059784956 0.04721803 0.06886593 0.03676049 -0.11620196
-0.031902373 0.04830458 -0.17469089 -0.08941854 -0.020169422 -0.19945209 -0.25366408 -0.033626027
-0.19907978 -0.18634802 -0.21316275 -0.08753743 -0.155355 -0.15173787 0.043618843 -0.010670361
-0.008348574 0.0023741822 0.061623506 0.21255875 -0.024738705 0.06574333 0.18286313 -0.01105881
0.14577419 0.17182596 -0.059987813 0.011700317 -0.05010576 -0.06671369 -0.08443964 -0.11746044
-0.015514199 0.03375206 -0.10448315 -0.07573582 -0.12390658 -0.061987918 -0.020662483 -0.11259621
-0.061202597 0.031833496 0.048936523 0.029924337 -0.1065003 -0.03455949 -0.005587703 -0.010086702
0.027719872 0.08609285 -0.015436922 0.11368826 0.1424167 -0.15974373 -0.065810986 -0.06622796
0.10859115 0.17534323 0.16965884 0.21700463 0.32655105 0.2588673 -0.1402485 -0.15190431
-0.10494101 -0.07530545 -0.1180488 -0.06700263 -0.049758572 -0.020778688 0.00052843353 -0.21411271
0.034911666 0.05047151 -0.18750286 -0.058209814 0.111464866 -0.06478875 -0.16841836 -0.082498655
0.15224811 0.31199282 0.1698163 0.20097089 0.33097115 0.20279078 -0.002759514 0.23479697
0.054871917 0.05441328 -0.08337177 -0.012977704 -0.10186945 -0.065797366 0.061855305 -0.16558042
-0.17023526 -0.022541938 -0.05274595 0.08470008 0.20691496 -0.06886596 0.11381969 0.17751272
-0.061081845 0.09751325 0.1539101 0.0056435857 0.3089439 0.09602328 0.17170994 0.4725297
0.23622663 0.09772663 0.44821453 0.2598742 -0.19624639 -0.084140375 -0.014170216 -0.08580244

encoder.1.0.bias f4 [84]
00000000: 22ea e3bb 8d5b f439 2d34 72bc 78a4 a6bb
00000010: 5852 1b3a b1c6 173d 93f4 c1bc 5815 053d
00000020: 1d8a 97bc 95ec 383c aae7 04bd 5b04 2d3c
00000030: dbb0 513b 92f0 643c 2d0b 7b3c c800 c8bb
00000040: 5d8b 20bc 5bf6 813c 5572 e63c 2faa cd3c
00000050: 4812 8f3c 7b5e ff3c dfa2 213c 30ff ac3c
00000060: 0353 0e3d 24f3 553c d8db 9bbc 9f6e c0bc
00000070: 0f10 ae3c ada4 6dbb e598 83bc 4e67 523c
00000080: 99a2 dd3c 4626 bdbc 3af2 023b f1b2 073c
00000090: 7592 5d3c d77c 6dbc ad86 c4bc 185a d5bc
000000a0: b106 b4bb a664 cf3c ce39 573b c0af edbc
000000b0: 7477 f1bc 8d7c 83bc c7d2 a13b 4a19 d8bb
000000c0: 7f28 aabb 74b6 9abb 742e 3cbb 1e0e fd3c
000000d0: ef8a 693c b005 afbc 1619 0e3d 5d68 7dbc
000000e0: 1701 a83c 5eda b3bc 0cc8 fb3c cba6 3f3c
000000f0: 4d06 073d 8790 0e3c f8c0 c6bb feff 42bc
00000100: 0ac5 b63c 50ff 50bb adad 153d 6663 9bbc
00000110: 236c cbbc a83b 1b3c e5e1 99bc 29e7 d3bc
00000120: 40da 9fbb da99 da3c cda3 07bd 8ee0 fbbc
00000130: 7f43 babc bbf9 69bc 4c5f 04bd 33c1 0f3d
00000140: 8374 94bc 1dc5 0bbc 3ca4 ae3a c9f1 0b3b
-0.006955401 0.00046607517 -0.0147829475 -0.005085524 0.0005925051 0.03705472 -0.023676192 0.032491058
-0.018498475 0.011286874 -0.032447495 0.01056012 0.0031996283 0.013973372 0.015322489 -0.0061036088
-0.009798852 0.015864542 0.02813069 0.025105564 0.017464772 0.031172981 0.009865492 0.021117777
0.034747135 0.0130584575 -0.019025728 -0.023490248 0.021247892 -0.0036261484 -0.016064117 0.012842013
0.027055072 -0.02308954 0.0019980804 0.008282409 0.013523688 -0.014495096 -0.02399 -0.026043937
-0.0054939617 0.025316548 0.003284085 -0.029014468 -0.029475905 -0.016050601 0.0049384567 -0.0065948116
-0.005192816 -0.004721457 -0.0028714212 0.03089052 0.014254316 -0.021365017 0.034691893 -0.015466777
0.020508332 -0.021954712 0.030735038 0.011697481 0.032964993 0.00870145 -0.006065484 -0.011901854
0.022310752 -0.003189046 0.036542583 -0.018968295 -0.024831837 0.009474672 -0.018784473 -0.025867062
-0.0048783123 0.02668469 -0.033115197 -0.030746724 -0.022737263 -0.014280732 -0.032317445 0.03509636
-0.018121963 -0.008530882 0.0013324092 0.0021353832

encoder.1.1.weight f4 [84]
00000000: 39e6 833f e99f 773f 7adf 953f 6425 ce3f
00000010: 3f11 913f 71f3 783f 52c2 893f 7d14 933f
00000020: 1a35 583f 993b 643f e4d3 873f 8020 613f
00000030: 3455 753f e770 763f e891 6f3f 0f5a 493f
00000040: bb07 653f 24a0 713f 425a 733f b531 5e3f
00000050: 2910 473f 5e07 2f3f 11f6 4b3f a384 613f
00000060: 90a8 813f b2d8 683f f393 563f 936f 783f
00000070: 119d 793f 75cf 403f 67e7 793f f37c 553f
00000080: 0a98 593f 7db5 613f 9233 733f 622c 5b3f
00000090: fd9e 6f3f 7458 7f3f 7492 643f 7923 6c3f
000000a0: 95b0 713f 71ac 383f 64de 6c3f b4b9 713f
000000b0: 9a57 5d3f 0fad 2d3f 95b7 653f bc03 5a3f
000000c0: 371f 513f 5b70 683f 128d 9b3f 5390 973f
000000d0: c001 823f e643 8f3f 8f18 583f 5ce8 643f
000000e0: bb65 6c3f a075 de3f c7b6 873f 34e3 5c3f
000000f0: 1ee6 623f d9cc 553f 3e2b 5b3f f0a8 4e3f
00000100: f8cb 4c3f 8885 633f 9d28 8e3f 1ec5 5e3f
00000110: e39e 6b3f 3abd 733f 12be 7b3f c3ab 4a3f
00000120: 621a 493f 7880 6e3f 1f6b 853f 63cf 4c3f
00000130: f837 943f e2d8 c63f 9f0a 6e3f 6f3a 693f
00000140: 8578 633f 8bb5 1d3f 0059 663f 130e 9d3f
1.0304633 0.9672838 1.1708825 1.6105161 1.1333388 0.9724646 1.0762427 1.1490628
0.84456027 0.8915344 1.0611539 0.87940216 0.95833135 0.96266025 0.9358201 0.78653044
0.8946492 0.9438498 0.950596 0.86794597 0.77759033 0.68370616 0.7967234 0.8809301
1.0129566 0.9095565 0.838195 0.9704525 0.9750529 0.75316554 0.97618717 0.8339378
0.8499762 0.88167554 0.95000565 0.856146 0.9360197 0.99744344 0.8928597 0.92241627
0.9441007 0.72138125 0.9252684 0.94423985 0.86461794 0.6784219 0.8973325 0.8516195
0.81688255 0.9079644 1.2152426 1.1840919 1.0156784 1.1192596 0.84412473 0.8941705
0.9234273 1.7379646 1.0602654 0.86284184 0.8863238 0.835157 0.8561286 0.8072653
0.7999873 0.8887563 1.1106144 0.87019527 0.92039317 0.9521061 0.983369 0.7916834
0.7855588 0.9316478 1.0423316 0.80003947 1.157958 1.5534937 0.92984957 0.9110479
0.88855773 0.6160514 0.89979553 1.226992

encoder.1.1.bias f4 [84]
00000000: 1496 b2be db88 e0be a465 ddbe 2f63 c2be
00000010: bd0b 39be a3d3 e2be 8367 0fbf b46b bfbe
00000020: 4efa 04bf 43f9 c5be 3184 febe decc 5bbe
00000030: 0320 2bbe 0202 0abf 99a9 ccbe 6e84 a9be
00000040: 70b9 b9be 61c3 75be 5fcb b0be ca05 92be
00000050: c361 9bbe 0a4c eabe a6e8 acbe 88e0 c8be
00000060: a823 d0be 3d00 0abf e7af edbe 9e18 ebbe
00000070: 0ff6 9fbe d8c3 1dbf 38e9 d1be a3ea 05bf
00000080: c0e0 7cbd d545 64be 5dbf 86be 551a 88be
00000090: 95d1 c9be 9f5c e1be 4c37 0abf d15a d0be
000000a0: 3597 f4be b69f f1be 8ec8 f5be 2b8c b7be
000000b0: ddf9 9abe ab68 82be 5651 b9be 6000 98be
000000c0: e327 cbbe e36e f1be e585 c1be fac4 b9be
000000d0: 0fcb e7bd 4d65 a5be 601c d6be 8b2b fcbe
000000e0: 8e84 0cbe a101 2abf 3f56 a4be fee7 c4be
000000f0: cc38 cabe 3088 15be 0d08 edbe 96cc c8be
00000100: 29b4 efbe 0954 fbbe ae4a b9be 8fb3 77be
00000110: b7f8 dbbe 83c2 d9bd 636f c5be a09d ccbe
00000120: 6357 61be c674 ecbe 1809 8dbe e653 adbe
00000130: 558b a6be e0d9 9fbe bfa6 cebe 18ac dbbe
00000140: 0c04 64be bd7c 91be 8d7f 82be c5f9 f0be
-0.34880126 -0.43854412 -0.43241608 -0.37966296 -0.18070884 -0.4430209 -0.5601732 -0.37386858
-0.51944435 -0.38666734 -0.4971023 -0.2146487 -0.1671143 -0.53909314 -0.39973143 -0.33108848
-0.3627429 -0.24000312 -0.3453016 -0.28520042 -0.30348024 -0.45761138 -0.33771247 -0.39233804
-0.40652204 -0.53906614 -0.46423265 -0.4591722 -0.31242415 -0.6162696 -0.40998244 -0.5231115
-0.061737776 -0.22292264 -0.26317874 -0.2658259 -0.3941771 -0.44015977 -0.53990626 -0.40694287
-0.47771612 -0.47192162 -0.48004574 -0.35849127 -0.30268756 -0.2547048 -0.36194867 -0.29687786
-0.3967887 -0.47154912 -0.37797466 -0.36283094 -0.11318027 -0.3230385 -0.41818523 -0.4925197
-0.1372244 -0.66408736 -0.3209705 -0.38458246 -0.39496458 -0.14602733 -0.46295205 -0.39218587
-0.4681714 -0.4908755 -0.3618979 -0.2418959 -0.42963192 -0.10632803 -0.38561544 -0.39964008
-0.22005992 -0.4618284 -0.27546 -0.33853072 -0.32528177 -0.31220913 -0.40361592 -0.42904735
-0.22267169 -0.2841548 -0.2548794 -0.4706556

encoder.1.1.running_mean f4 [84]
00000000: 3a2b 96c0 3c63 9bbf 1618 20c1 443e f8c0
00000010: 31b4 7ec0 3254 f3c0 5fec b0c0 1cc6 fdc0
00000020: 075c ffc1 a39c 17be 0f90 3ac1 c803 99c0
00000030: 59f6 8bc0 209f 0fc1 1dda 27c0 0ec6 0e3f
00000040: f204 0fc1 60e3 a6c0 9cc5 35c1 7ee1 5840
00000050: fcad 6bc1 b4bc 39c1 9e6e bac0 50f1 8bc1
00000060: 424c 4ec1 4286 12c1 cf6c 26c1 6470 c3c0
00000070: add4 6cc1 7899 8ac0 ea7a 7e3f 27f0 bbc1
00000080: e0c3 f6c0 7a20 ff3f d1de 17c1 0ea6 48c1
00000090: 7030 0ac1 d879 3ebf 547f 3ec1 6d9f d5c0
000000a0: a2a4 c4c1 75a4 a7c1 12ea 9340 2208 a8bf
000000b0: a02e 22c0 167d 87c1 1643 44c1 8a45 a7c1
000000c0: 5d90 8abe a91b ed40 d6c9 19bf 9319 96c0
000000d0: d286 49c0 ce7e e2bf b590 09c0 f6a8 30c1
000000e0: 5186 01c1 2909 a7c0 e09e 02c1 735a bbc0
000000f0: 56ec 9ac1 2243 9240 44a7 d4c0 8177 9fbf
00000100: 4c0b 53c1 bfd6 c2bf 7c2f 46c0 943a acc1
00000110: 78f3 d9c0 95d8 4ac1 5a90 07c1 46ed 7ac1
00000120: 1bc3 21c1 1082 02c0 3bcf c1bf 574e f8c0
00000130: 8854 26c1 c1e3 24c1 6858 0f41 bf50 d5c1
00000140: f983 27c1 007b b0c1 42c1 6ac0 3964 8bc0
-4.6927767 -1.2139659 -10.00588 -7.757601 -3.979748 -7.6040277 -5.528854 -7.9304333
-31.919935 -0.14805846 -11.660171 -4.7817116 -4.3738217 -8.976349 -2.6226876 0.5577096
-8.938707 -5.2152557 -11.360744 3.388763 -14.729977 -11.60857 -5.826003 -17.492828
-12.893618 -9.157778 -10.401565 -6.1074696 -14.801923 -4.331234 0.994063 -23.492262
-7.7114105 1.9931786 -9.491899 -12.540541 -8.636826 -0.7440467 -11.906086 -6.675711
-24.580387 -20.955301 4.622323 -1.3127482 -2.5340958 -16.936077 -12.266378 -20.908955
-0.27063265 7.4096265 -0.600736 -4.690622 -3.1488538 -1.7694948 -2.1494572 -11.04125
-8.095292 -5.219868 -8.163788 -5.854791 -19.365398 4.570695 -6.645418 -1.2458345
-13.190258 -1.5221785 -3.0966482 -21.528603 -6.8109703 -12.677876 -8.472742 -15.682928
-10.110133 -2.0391884 -1.5141367 -7.759563 -10.3956375 -10.305604 8.959084 -26.664427
-10.46972 -22.060059 -3.6680455 -4.355984

encoder.1.1.running_var f4 [84]
00000000: 04ec 7842 1298 6c42 2017 7d42 8597 db41
00000010: 0a25 8942 4749 3142 e544 9841 cd14 9842
00000020: 2749 8743 bd3b 6642 9f89 9042 bf00 1d42
00000030: 6004 4a42 1b5c 7d42 472b 4642 fe96 6842
00000040: b856 6d42 e53c 3f42 f321 ab42 6c19 6842
00000050: 9ca6 bd42 cc7a ae42 350a 6742 869d fc42
00000060: 5245 8142 b7cc 2542 bf35 c642 3aaa 6342
00000070: a0b5 9f42 d644 4d42 b6ad 0842 9a65 2c43
00000080: 3926 5842 6f18 2442 e0fa 5042 0c59 c242
00000090: 566f 7542 76ac d341 2c21 7042 b013 8e42
000000a0: 5bfe 1143 78e9 2143 8751 0342 9eb1 8242
000000b0: 9739 ae42 d37c 0443 df93 d842 48e9 0f43
000000c0: cfb7 0842 d40a 4742 6d87 3942 6a8a a342
000000d0: 95b1 4742 686a b341 a372 0d42 f077 8642
000000e0: 4bfd 8642 dd37 1142 fa1c 4342 46d8 0242
000000f0: 0db8 1743 25a7 7c42 9b3a e941 0879 f341
00000100: 40be bd42 fa5f ab41 22b5 f741 750a 0a43
00000110: 420d 2f42 5ea4 b242 f8e6 6542 ac40 fb42
00000120: 6b07 c642 3ad7 1f42 4a31 f641 174d 9342
00000130: 6276 8642 45d7 0442 66dc 8542 38ef 6843
00000140: 8549 7342 d97f 2143 f844 8542 9a0f 9742
62.230484 59.148506 63.272583 27.448984 68.57234 44.32156 19.03364 76.04063
270.5715 57.55834 72.26879 39.25073 50.504272 63.339947 49.542263 58.147453
59.334686 47.809467 85.56631 58.024826 94.82541 87.23984 57.759968 126.30766
64.63539 41.449917 99.10497 56.916237 79.85474 51.317223 34.16964 172.39688
54.037327 41.02386 52.244995 97.17392 61.358727 26.45921 60.032394 71.03845
145.99358 161.91199 32.829617 65.34691 87.11248 132.4876 108.28881 143.91125
34.1795 49.760574 46.38225 81.77034 49.92342 22.426956 35.36195 67.23425
67.49471 36.304554 48.778297 32.711205 151.71895 63.163227 29.153616 30.434097
94.87158 21.421864 30.963444 138.04085 43.762947 89.32103 57.475555 125.62631
99.01449 39.960182 30.774067 73.650566 67.23122 33.210224 66.930466 232.93445
60.821796 161.4994 66.634705 75.53047

encoder.2.0.weight f4 [84, 84, 3, 3]
00000000: aa70 143e ac38 173e f249 993e 0283 123e
00000010: 407a a63d 480e 963e 0679 3d3e 3d00 da3d
00000020: a56e e63d d58e a53c 2136 b23d 0c1b 883d
00000030: 9689 c1bd fab2 26bc 2562 063d 964c 57bc
00000040: 353d 0f3c 2d7f a23d afa1 fc3d a3f4 e63d
00000050: b657 383e be24 653e 554f ff3d b025 1f3e
00000060: 703a 873c 1392 4b3e 2f5e f53d b34c fcbd
00000070: 305c 0e3d 4209 c4bd 72a9 9f3d 1882 693e
00000080: eb02 aa3d 129e 88be f6f7 89bd e6bd adbe
00000090: d165 633e 1031 263e 21fb 523e 6fed 6b3e
000000a0: 3526 103e 8346 6d3e 54a5 0f3e c5f5 fb3c
000000b0: ee96 5c3d 5d1b a1bd 3499 2c3d cbbf e4bd
000000c0: 6c59 f6bd 7be5 61bd 7688 dd3d ae15 11be
000000d0: 3eb6 04be 8cfa 07be 53f5 a7bd 48c0 073d
000000e0: e918 84be f017 aebd 3b97 833c f2c8 10be
000000f0: 26e1 31be f67c 31bc b96a 69be eb7c bd3e
00000100: 0a93 943e 8727 7c3e 5771 973d 3eb4 4c3e
00000110: 6c97 d73d d407 6e3e 6b58 193e de59 ec3c
00000120: 2a23 c3bd 3007 71be abed 63be cb0e 33be
00000130: ffe6 6dbe 466f 21be 0876 1cbe be75 debd
00000140: 6619 69bd d7ae d63d 4fcf e93d cedd 4e3e
00000150: 1154 c7bd 4e7e 953d 5ebc 503e 565b 163d
00000160: 7fe9 febb 65ce ec3d 2db3 cebc 4bb5 723c
00000170: fb6b 21be 90bd 85bd 4794 e73d 1bcc 053d
00000180: 5716 a1bd bb5f 3f3d e468 733c 85c8 083e
00000190: 06b1 d73d 29a5 293d e30a 7cbd 2d24 f9bc
000001a0: fca8 5f3d 3d98 98bd 7955 553d 61af 343d
000001b0: e8fc fbbd 103b 4bbe 8d07 45be 40ff 06be
000001c0: 6903 edbd 4c09 91bd 9d99 33be ea37 24be
000001d0: 586a 42be 21b8 24bd 15d9 2f3c 5406 26be
000001e0: 4beb 453e 51d9 99bb 6d13 1dbd 11fb 8b3d
000001f0: 8dc1 583d 501d c5bd 0171 453e 0da9 783e
00000200: c51b 743e 40ae 333d 6f43 ed3d 5d25 6f3e
00000210: 1de1 00bd f55d 773d 2e89 6d3e 2bdb cbbd
00000220: 91f9 8abd 76ad 4dbe 19ea e63c 6987 1b3d
00000230: 0fd6 483c 383e b5bd b683 c7bd 26d4 dbbd
00000240: 6253 49be f3b7 42be 3d9f 6fbe 6b9e 42be
00000250: 91e5 0ebe d184 3dbe ef1f 29be 3f10 09be
00000260: 25a1 a1bd 9d44 bc3e 080a 5b3e 07da 603d
00000270: e882 033d 4577 c6bc f013 253d 4352 cebc
00000280: 0285 2b3d 75b9 093c 7acd 563e 6951 c33d
00000290: 9e79 6d3e f1e4 423e 8e84 d13d f99b 0b3e
000002a0: 65d3 1b3d 60b6 5f3d 4911 6b3e 751d f83c
000002b0: c91e bebd e870 afbc bafd 81bd ba26 cbbd
000002c0: bbd1 fabc c19a 5e3c 7976 cd3c ec28 eabc
000002d0: d304 d1bd 1ce3 99bd 98dc b0bd c533 c83b
000002e0: 7d3b 883d 3947 223c 8487 acbd a29e fcbc
000002f0: ce20 d1bc e3ce 16be 0675 833d 312c b43d
00000300: b022 433d 2143 fe3d 573f 563e 77f3 643b
00000310: c304 773d c22e 703e 8fcd b8bd 7811 83bd
00000320: 6982 dfbc fa57 923c 31c5 b0bc 6a52 a23c
00000330: 288c a1bd 066a 32bc 09fa d5bc 30c6 32be
00000340: dd5f 7bbe ea5a 3abe 954e 37be c3b2 f5bd
00000350: 30db 84bd 08b6 4dbe a72f 58be 6184 16be
00000360: 4481 b03c d516 283e ff4e e6bc c9a7 50bd
00000370: 1925 3a3e 4e05 f53d cd8a 443c 87c4 373e
00000380: 7aad d03d 6102 0dbe c25f 4fbd 6346 cabd
00000390: 16d1 b5bc be4b 96ba 52d7 ecbc 478f 0cbd
000003a0: 9e92 62bc b486 0cbe 9a00 b3be 9d75 74bd
000003b0: e9a4 2c3d 5209 653c eac9 343e 7336 303e
000003c0: 5bff c7bd fff9 713d 0c49 dc3d fffd 593d
000003d0: dbe4 2e3d 9130 053e 1bb1 113e cea8 55bc
000003e0: 8dd7 1b3e f71b 8f3d 3cee 153e b663 8f3d
000003f0: f7d5 923c 48b5 c03d af4b 353e 9042 133e
0.14496103 0.14767712 0.29939228 0.14307788 0.08128786 0.2930777 0.18503198 0.10644577
0.112515725 0.02020971 0.087017305 0.06645784 -0.094500706 -0.010174507 0.03280844 -0.013140818
0.00874262 0.07934413 0.12335526 0.112771295 0.18002209 0.22377297 0.12466303 0.1554172
0.016507357 0.19879942 0.11980855 -0.12319317 0.034755886 -0.09572078 0.07795991 0.22803533
0.08301338 -0.26683098 -0.06736748 -0.33933944 0.22206809 0.16229653 0.2060361 0.23039792
0.14077075 0.2317143 0.14027911 0.03075684 0.053854875 -0.07866547 0.042138293 -0.11169394
-0.120287746 -0.05515049 0.108170435 -0.14168426 -0.12960145 -0.1327917 -0.08201089 0.033142358
-0.25800255 -0.085006595 0.016063323 -0.14139155 -0.17371044 -0.010833016 -0.22794618 0.37009367
0.29018432 0.24624453 0.07394665 0.19990632 0.10526928 0.23245174 0.14975135 0.028851446
-0.095281914 -0.23537898 -0.22258632 -0.17486112 -0.2323265 -0.15765104 -0.152794 -0.10862301
-0.056908987 0.10482567 0.11416494 0.202018 -0.09732831 0.07299481 0.20384356 0.0367082
-0.0077792997 0.11562804 -0.025231922 0.014813731 -0.15763848 -0.06530297 0.113075785 0.032665353
-0.07865589 0.046722155 0.014856551 0.13357742 0.105318114 0.041417275 -0.06153382 -0.030412758
0.054604515 -0.07450912 0.052083466 0.044112567 -0.123040974 -0.1984675 -0.19241162 -0.13183308
-0.11572916 -0.07081851 -0.17539068 -0.16036955 -0.1898588 -0.04021466 0.010732909 -0.16213351
0.19328038 -0.0046950956 -0.038348604 0.068349965 0.05291896 -0.096247315 0.19281389 0.24283238
0.23838718 0.04386735 0.115851276 0.23354097 -0.031464685 0.06039234 0.23196861 -0.09953912
-0.06785882 -0.20085701 0.028187798 0.037970934 0.012258067 -0.08849758 -0.09741919 -0.107338235
-0.19660714 -0.19015484 -0.23400588 -0.19005744 -0.1395476 -0.18507697 -0.16516088 -0.13385104
-0.07892064 0.36771098 0.21390545 0.054895427 0.032107264 -0.024226794 0.040302217 -0.02518571
0.041874893 0.008406033 0.2097682 0.09537012 0.23190925 0.19032647 0.10230361 0.13633718
0.0380434 0.054617286 0.22955813 0.030287484 -0.092832156 -0.021416143 -0.063472226 -0.09919496
-0.030617585 0.013586701 0.025080906 -0.028583966 -0.10205998 -0.07514021 -0.08635825 0.006109687
0.066519715 0.009904676 -0.08424285 -0.03083736 -0.025528338 -0.14727359 0.06418805 0.08797491
0.047640502 0.124151476 0.209226 0.0034935155 0.060307276 0.23455337 -0.09023582 -0.06399816
-0.027283864 0.017864216 -0.021578403 0.019814689 -0.07888061 -0.010889536 -0.026120203 -0.17458415
-0.24548288 -0.18198743 -0.1790107 -0.11996987 -0.06487119 -0.2008897 -0.21111928 -0.14698936
0.021546014 0.1641496 -0.02811384 -0.050941262 0.18178214 0.119639024 0.011995983 0.17946063
0.10189338 -0.13770439 -0.05062843 -0.098767065 -0.022194427 -0.0011466665 -0.028911266 -0.034316327
-0.013828902 -0.1372326 -0.34961396 -0.059682477 0.042149458 0.013979273 0.17655149 0.1720827
-0.09765502 0.059076305 0.1075612 0.053220745 0.042698722 0.13006808 0.14227717 -0.013040734
0.15218945 0.06987756 0.1464166 0.0700144 0.017924292 0.09409577 0.17704652 0.1438086

encoder.2.0.bias f4 [84]
00000000: da37 b23c a1c4 febc e1f0 ce3c 1977 b43c
00000010: 7e00 de3c 9f67 7a3c 2790 07bd 7b10 b23b
00000020: 472b f13c 05ee 6cbc 2c6b e0bb 831c a5bc
00000030: b6ac 0a3d d4bc 86bc b38d 92bc 55f6 0d3d
00000040: 1392 00bd dfe9 e63c 8c91 64bc 0c66 e93a
00000050: 2511 c53c 937e f03c df84 053d f926 24bc
00000060: d688 023d dfdf 003c bb19 f23c bcf1 06bd
00000070: 10d5 f9bc a697 033d 0387 603c 9844 abba
00000080: 812c 00bd f6cf 293c 83d3 b73c 488e eb3b
00000090: 9279 ae3c a47a 0e3d 0703 f1bc 0bd0 873a
000000a0: d933 60bc bab5 fdbb 85f9 c9bc 25f0 823b
000000b0: 57fb b1bc ceeb bebc 9ed4 9e3c 8a8c a2bb
000000c0: 4613 ddbb 85d8 cfbb 4b1d bb3c 9ee1 c9bc
000000d0: 60a9 0d3d 6e97 ccbc 0f17 d93c 3ee3 0a3d
000000e0: 628a c6ba 443f 25bb c8eb ba3c 9b66 edbb
000000f0: c8ab 653c 60a6 dd3c 4c2e 113d f705 e33c
00000100: c944 01bd 5ddb 5abb 3cf8 e9bc 3c8c 93bc
00000110: 102d 45bc 77b5 d93c 0e15 fdbc fea0 fc3b
00000120: 90c4 733c 42dd e73c de9a 12bd 3bc7 efbc
00000130: 35e0 b4bc 69dc 0c3d 249f ffbc b972 06bd
00000140: 1421 083d deea 0e3d 3c31 0f3d 4c55 043d
0.021755148 -0.03109962 0.025261344 0.022029446 0.027099844 0.015283494 -0.03309646 0.0054340935
0.029439582 -0.014461045 -0.0068487134 -0.020155197 0.033856116 -0.016447462 -0.017889833 0.03465875
-0.031389307 0.02818769 -0.013950717 0.0017806902 0.024056027 0.02935723 0.03259742 -0.010019057
0.03186878 0.007865875 0.029553285 -0.03294538 -0.030497104 0.032127045 0.013704064 -0.0013066707
-0.031292442 0.010364523 0.022439724 0.007188592 0.021298204 0.034784928 -0.029420389 0.0010361684
-0.013684236 -0.0077426108 -0.024655113 0.0039959126 -0.021726293 -0.0233058 0.019388493 -0.004960601
-0.0067466823 -0.00634295 0.022841116 -0.024643715 0.034585357 -0.024974551 0.026500253 0.03390812
-0.0015147442 -0.0025214711 0.022817507 -0.0072448975 0.014018007 0.027056873 0.035444543 0.027712805
-0.03155974 -0.003339491 -0.02856075 -0.018011205 -0.0120346695 0.026575787 -0.030893829 0.0077096215
0.014878407 0.028303746 -0.035792224 -0.029269805 -0.022079566 0.034389887 -0.031203814 -0.03282425
0.03323467 0.034891956 0.034959063 0.032307908

encoder.2.1.weight f4 [84]
00000000: 3043 4e3f 82e3 6a3f 4848 813f 0f26 683f
00000010: f762 323f 66e7 763f 2a2d ba3f 2d4b b13f
00000020: 824a 6e3f 7736 943f 232e 6e3f b3a6 563f
00000030: c551 3e3f e879 4f3f 4a17 6a3f 7db1 673f
00000040: 7cad 673f d2bd 443f 732f 5e3f 2791 793f
00000050: 3055 593f 35dc 9e3f 81cd 6f3f 4b83 4c3f
00000060: 9fd0 8a3f 9ac1 3d3f 4ed9 113f 5607 503f
00000070: 5508 903f 93a0 473f 7158 6b3f 4813 883f
00000080: 2f7c 523f af3d 413f c74a 293f 52ac 383f
00000090: 43a4 5e3f e590 853f ba5c 7f3f 6f19 6a3f
000000a0: a922 633f 7801 3e3f ff3c 713f dfec 503f
000000b0: b2ae 883f 7bfa 7c3f 6b95 b23f 11b3 843f
000000c0: 9a40 633f 227d 3c3f c3fe 543f 47e1 833f
000000d0: 65b6 7b3f 826a 843f 0aa0 673f f448 543f
000000e0: 4f40 583f dc9c 5d3f cc99 603f 8dbd 293f
000000f0: d5ad 603f 2685 833f 07dc 3c3f 28ac a43f
00000100: 9f5a 653f 36b1 823f 9138 343f 2ca8 743f
00000110: 00fa 693f 8ef4 543f 7d71 8b3f 9ed5 733f
00000120: 3f3c 733f f54d 653f 9089 c93f 9989 143f
00000130: b597 763f 4a7e 613f 9eca 803f 4448 7a3f
00000140: ecff 7e3f fcc7 303f afa4 5e3f 504d 643f
0.8057127 0.917534 1.0100183 0.9068307 0.6968226 0.96446836 1.4545033 1.3851067
0.9308244 1.1579121 0.9303915 0.8384811 0.7434352 0.8104539 0.91441786 0.905052
0.9049909 0.7685214 0.8679115 0.9748711 0.8489561 1.2410952 0.9367295 0.7988784
1.0844916 0.7412354 0.56972206 0.81261194 1.1252543 0.7797939 0.91931826 1.0630884
0.8222074 0.75484747 0.66129726 0.7213794 0.86969393 1.0434843 0.99750865 0.9144506
0.8872476 0.7422099 0.942337 0.81611437 1.0678313 0.988197 1.3951849 1.0367147
0.8877045 0.7362844 0.83201236 1.0303124 0.98325187 1.0345004 0.90478575 0.8292382
0.8447313 0.86567473 0.87734675 0.66304857 0.87765247 1.0275009 0.73773235 1.2865038
0.895914 1.021033 0.70398813 0.9556911 0.91397095 0.8318566 1.0894009 0.9524783
0.95013803 0.8957208 1.5745106 0.5802246 0.96325237 0.88083327 1.0061834 0.9776652
0.99609256 0.6905515 0.8697004 0.8918047

encoder.2.1.bias f4 [84]
00000000: 60a8 45bd 8787 76bd 928b 0ebf dfd9 73be
00000010: 1924 a8be d4d4 8cbe cba4 8bbe 6396 c9be
00000020: 3ab3 d03b e69b 4fbe 19e6 f9bd 0f81 95be
00000030: 315b a6be 9964 75be 4425 91be 4e43 0dbf
00000040: b002 4dbe b128 71be ec49 efbe 0d4d cfbe
00000050: 4fff 67be 73e8 c8be 00a5 1abf 76ff b7be
00000060: 7f7d c8be 98cb c8be f7dd d6be c6d8 3cbe
00000070: e851 49bf eeed dbbe 79dd 78be dfb5 0fbf
00000080: bbe2 8ebe 5a67 92be 77f4 9bbe 3d86 8fbe
00000090: 740b fbbe ab49 28bf edc2 6abe f0ab 09bf
000000a0: 2110 cabe 2d43 8ebe 4638 2dbf 8b51 1dbe
000000b0: 5b9a bfbe ef23 9dbe 595a 8ebe 4942 05bf
000000c0: 71c3 aebe bc7d 82be c55b f1bd 5780 08bf
000000d0: 024b 03bf 79a0 89be 3c96 6dbd c41b 80be
000000e0: b253 c5be 26f1 a3be 1013 a8ba e7b1 b3be
000000f0: a317 eabe a049 5bbe c94a a0be 097c abbe
00000100: af92 babe 767c 02bf 94ea 91be 0ac6 a5be
00000110: e400 75be 2557 87be 16aa d2be 42d7 11bf
00000120: e102 c63d 6ce9 d2be 0cc0 17bf ce58 7cbe
00000130: 6fdd b6bd cfd2 bbbe 295a cebe f521 edbe
00000140: c4e8 9abe a4b4 dabe 967b 19be e3d3 88be
-0.048256278 -0.060187843 -0.5568172 -0.2381358 -0.3284004 -0.27506125 -0.27274165 -0.39372548
0.0063690217 -0.20274314 -0.12202091 -0.29200026 -0.3249145 -0.23964156 -0.28348744 -0.55180824
-0.20020556 -0.23550679 -0.46736085 -0.40488473 -0.22655986 -0.39239845 -0.6040802 -0.3593709
-0.39158246 -0.3921783 -0.4196622 -0.18442068 -0.78640604 -0.42954963 -0.24303235 -0.5613689
-0.27907357 -0.28594476 -0.3045995 -0.28032103 -0.49032176 -0.6573741 -0.22925921 -0.5377798
-0.3946543 -0.27785626 -0.6766399 -0.15363137 -0.3742245 -0.30691478 -0.27803305 -0.5205427
-0.34133485 -0.25486553 -0.11785082 -0.5332083 -0.5128633 -0.26880243 -0.058004603 -0.25021183
-0.38540417 -0.3201992 -0.0012823064 -0.35096666 -0.45721158 -0.21414804 -0.31307057 -0.3349307
-0.36440036 -0.5097116 -0.2849928 -0.32377654 -0.23926121 -0.26433674 -0.4114539 -0.5696908
0.09668518 -0.41193712 -0.59277415 -0.24643251 -0.08928954 -0.36684272 -0.40303162 -0.4631497
-0.3025571 -0.42715943 -0.1498855 -0.26724157

encoder.2.1.running_mean f4 [84]
00000000: 3eb4 b33f 05d8 d1be 2960 03bf 7731 bcc0
00000010: 693f c5bf 3abe 89c0 5fba 4b3f 913a b5be
00000020: 20ef 0940 dc2f 59c0 8e87 9ec0 5b7f b3bf
00000030: 149c 0a40 3ce8 41bf b60e 54bf 72cd 70c0
00000040: 2a4a 00c1 66af 3040 b44e b1c0 01d1 b8bf
00000050: e6b3 68c0 b3c5 07bf 67bc a9c0 529a 25c0
00000060: abbb 3ebf 8b2b b3c0 bb07 9bbf 7193 18c0
00000070: a33c 353d 890d b7c0 8dd9 3cbf d6d7 96bf
00000080: f559 16c1 af5e 0ac1 6af1 8bc0 fe1c c9c0
00000090: aefd fcbf 731b 953e b7d7 46bf 3aa3 bb40
000000a0: 11db 613e 151f 07c0 4a4f 5ac0 6535 8ac0
000000b0: c7d5 3bc0 687b da3f fa5c 9340 3664 6c40
000000c0: 5a50 ebbf 2965 d3bf e223 c7c0 5957 c4bf
000000d0: 4df9 04c0 13c0 b3c0 e080 983e 2540 24c1
000000e0: 9a37 4ec0 70bd 9f3f 8a63 8d3f 2d38 82c0
000000f0: 4db4 93c0 63fa 3c3d 5b5a 0ac1 0df1 5f40
00000100: 5ce8 9340 d4a0 0b41 488f 0340 2702 3fc0
00000110: 327d dbc0 fbd8 1cc1 ec74 bf3e b6b9 75c0
00000120: 7504 08c0 5dc1 0641 b9cc 613f 6683 3e3e
00000130: 4e30 cb3f 0661 4dc0 a7e2 f9c0 8720 3b3f
00000140: 7276 c7c0 2c76 4140 aca8 d1c0 1b0c 16c0
1.403938 -0.40985122 -0.51318604 -5.881038 -1.5409976 -4.304471 0.79581255 -0.35396245
2.15522 -3.393546 -4.954047 -1.4023241 2.1657763 -0.75744987 -0.8283495 -3.7625394
-8.018106 2.7607055 -5.5408573 -1.4438783 -3.6359801 -0.5303604 -5.3042483 -2.587544
-0.7450511 -5.5990653 -1.2111734 -2.383999 0.04424728 -5.7204022 -0.73769456 -1.1784618
-9.396962 -8.648116 -4.3732195 -6.284789 -1.9764917 0.29122505 -0.77672905 5.863675
0.22056223 -2.111272 -3.4110894 -4.319018 -2.934923 1.7068911 4.6050997 3.6936164
-1.8383896 -1.6515247 -6.22313 -1.5339156 -2.077716 -5.6171966 0.29785824 -10.26566
-3.2221437 1.2479687 1.1046002 -4.0693574 -4.6157594 0.046137225 -8.647059 3.4990876
4.622114 8.726765 2.0556202 -2.9845064 -6.8590326 -9.802974 0.37393892 -3.83946
-2.125272 8.422208 0.88203007 0.18604812 1.5874116 -3.2090468 -7.8089175 0.7309651
-6.2332087 3.0228376 -6.55184 -2.3444889

encoder.2.1.running_var f4 [84]
00000000: 9975 e941 19e9 c441 1922 8b41 d2e9 c541
00000010: f1e0 3242 9f9f aa41 081f f441 d89c 1f42
00000020: a2cd d941 943c b141 81f5 f341 fc0a 9b41
00000030: ab66 ed41 081c 1642 2fdb a041 bc72 c141
00000040: a63a 1742 6147 b041 05fc db41 5a6a 9541
00000050: c871 df41 bd11 e841 6ee5 ca41 76ae 6c41
00000060: 9ce6 8441 fa78 9741 da89 a541 55fc 6842
00000070: 9571 3f41 43e6 be41 11ab 9c41 3097 7841
00000080: 44a2 c641 4168 1a42 dec1 ea41 2b26 1c42
00000090: 1c37 b941 d585 1642 7875 c241 4c65 8f41
000000a0: 6219 3c41 821b 0f42 3a25 cb41 2676 1b42
000000b0: 1e81 ca41 f4c3 e841 3249 2f42 497b fd41
000000c0: 8249 8d41 a663 0942 325b 0742 7207 8841
000000d0: 6005 8741 9c54 2742 36fb 8141 bfed 3d42
000000e0: 150c b641 dd66 9341 074c 0642 c487 fd41
000000f0: 1d30 ca41 144a b841 b1c0 2942 f0be 1642
00000100: 0634 ba41 68db 1e42 71a0 6141 ea93 0742
00000110: dd00 e641 310a 2942 a0ee e041 d705 af41
00000120: 6f8d 0f42 b619 c341 3547 3542 e0ed cf41
00000130: a2aa b741 35be 6041 ebeb 2b42 263d 8341
00000140: ff6e 0142 f6b2 0c42 a179 e541 0738 f941
29.18242 24.613817 17.39165 24.73917 44.71967 21.32794 30.515152 39.903168
27.225407 22.15458 30.494875 19.380363 29.67513 37.527374 20.107023 24.181023
37.807274 22.034853 27.498056 18.67693 27.930557 29.008661 25.362026 14.792593
16.612602 18.93407 20.69231 58.246418 11.96523 23.862432 19.583529 15.536911
24.829231 38.60181 29.344662 39.037273 23.151909 37.630695 24.307358 17.924461
11.756197 35.776863 25.393177 38.86538 25.313046 29.09568 43.82148 31.685198
17.660892 34.347313 33.839058 17.003635 16.877625 41.832626 16.247662 47.482174
22.7559 18.425226 33.574245 31.691292 25.273493 23.036171 42.438175 37.686462
23.275402 39.714264 14.10167 33.894447 28.750422 42.259953 28.116516 21.877851
35.88812 24.387554 45.31954 25.99115 22.958317 14.046437 42.98039 16.404858
32.358395 35.174767 28.68439 31.152357
