trained parameters/matching_network_miniimagenet_5shot_5way.pt (torch, 546639 bytes, 24 tensors)

encoder.0.0.weight f4 [84, 3, 3, 3]
000000 09 57 86 be 47 17 c0 be 02 cd 13 be 32 81 d5 3c
       -0.26238278 -0.3751776 -0.14433673 0.026062582
000010 0f a3 91 be bf 88 ab bd 80 60 8c 3d bf d6 61 3d
       -0.28444716 -0.083756916 0.068543434 0.05513644
000020 81 92 ae 3d b5 d0 80 be bd 49 e9 be 23 96 6c bd
       0.08524037 -0.2515923 -0.4556407 -0.05776037
000030 e8 2b 5f be 1c 1a 4b be 1e ad a1 3b cc 2c b3 3d
       -0.21794093 -0.19834179 0.0049339673 0.08748779
000040 b1 be 71 3d 27 3b 00 be 93 f4 a3 bd b2 f9 b1 be
       0.059019748 -0.12522565 -0.08005633 -0.34760815
000050 f2 92 89 3d fb 2e dd 3d fb 36 45 be ae 1b f8 3c
       0.06717481 0.107999764 -0.19259255 0.030286636
000060 7c 37 d6 bd 9d 2f 17 3e 58 ce 39 3e e3 2c d3 bb
       -0.104598016 0.14764257 0.1814512 -0.00644456
000070 6f 19 95 bd 9c 0d cf bb 5e b5 05 bd eb 12 84 bd
       -0.07280242 -0.006318761 -0.03264367 -0.06448921
000080 c4 2d 20 3d 5f 55 3a bc c6 6b 71 3d eb e5 b6 bb
       0.039106146 -0.011372893 0.05894067 -0.0055816076
000090 d8 f5 bd be 59 a2 55 3d 56 01 9c 3c 1d 60 fa bb
       -0.37101626 0.05215678 0.019043606 -0.007640852
0000a0 da 7c da 3b a4 12 11 3e 45 fa ea 3d f8 63 84 3d
       0.0066677155 0.14167267 0.114735164 0.0646438
0000b0 7e 3c 2a 3e 9c 3a 22 be 8f da 41 be ce be 62 bc
       0.16624638 -0.1584267 -0.1893103 -0.013839437
0000c0 6e 48 9c 3e 18 b1 e2 bd 49 55 82 be da 84 f2 3e
       0.3052401 -0.11068934 -0.25455692 0.47366983
0000d0 2f 1d 59 3d 25 d7 81 be c0 dc 6d be fa f5 b3 3e
       0.053006347 -0.25359455 -0.2322874 0.35148603
0000e0 49 37 81 3c 0d 33 47 bd 85 29 70 3e f1 8e 1e 3d
       0.015773432 -0.04863267 0.23453338 0.03871054
0000f0 91 70 af be 7c 60 91 bd 87 a7 f6 3d 64 c6 79 bd
       -0.3426557 -0.07098481 0.12043672 -0.060980216
000100 ea 7c 7c 3e 49 d8 ac 3c bf 3a 18 be 95 d3 07 3e
       0.24657026 0.021099227 -0.1486616 0.13264306
000110 48 78 15 be 06 cb 10 be a9 bf 27 3d 11 f0 01 be
       -0.14596665 -0.14139947 0.040954266 -0.12689234
000120 f7 88 cf bd 71 3d 85 3d 20 a9 46 3d 84 53 29 be
       -0.10133546 0.0650586 0.048501134 -0.16535765
000130 d9 b2 c0 3d 2b e8 9b 3d 59 6d 8d be 44 38 44 3e
       0.094091125 0.07612642 -0.27622488 0.19162089
000140 05 7c 2b 3d 71 29 06 be 83 85 84 3e 53 af 86 be
       0.04186632 -0.13101746 0.2588311 -0.26305637
000150 53 17 8e bd 55 20 58 bd 90 8d e7 bd 9b 34 19 3d
       -0.069380425 -0.05276521 -0.11306298 0.037403684
000160 49 aa 79 be e2 b7 70 3e 61 33 20 bd 22 45 22 3e
       -0.24381365 0.23507646 -0.0391115 0.15846685
000170 19 2b 5d be 3f 71 15 3e 9d 91 33 bd db 38 0d 3e
       -0.21598472 0.14593981 -0.04384004 0.1379122
000180 07 cb bc bc 70 29 0a be 52 d8 93 bc 83 65 1d 3d
       -0.02304603 -0.1349237 -0.018047486 0.038426887
000190 42 c1 a5 3e ad 7c 14 be db 22 36 3e 18 de 92 be
       0.32374007 -0.14500685 0.17786734 -0.2868507
0001a0 a8 61 05 3e 55 ce 17 be 21 a1 26 3d d9 60 fd 3d
       0.13025534 -0.14824803 0.04068101 0.12371988
0001b0 b2 69 8d be e0 86 0c be ce 23 c6 3d 9d 73 af 3e
       -0.27619702 -0.13723326 0.09674798 0.34267893
0001c0 88 c8 89 3e 5d 0f e7 39 f8 bc 9c be 71 70 1c be
       0.26910806 0.000440712 -0.30612922 -0.15277268
0001d0 25 d0 6c bd eb 50 9e 3c b6 a3 c6 bd fb 55 cd bd
       -0.05781569 0.019325694 -0.09699194 -0.10026165
0001e0 2d 72 65 3e 98 d2 7f 3e 01 a4 c6 3d 15 09 e8 bd
       0.22406836 0.24982679 0.0969925 -0.11329857
0001f0 e8 1c 54 bd 57 0a df bd af e4 a8 3c eb e9 28 bc
       -0.05178538 -0.10890644 0.020616857 -0.010309677
000200 dd 6c 8d bd ec f2 b5 bc 7b a3 7d 3c 48 df 1b 3e
       -0.0690553 -0.02221056 0.015480871 0.15221894
000210 e2 3e 84 3d cd 04 ae bd 93 ac 35 3d 6d 9e 6c be
       0.064573064 -0.084970094 0.044354033 -0.2310731
000220 66 17 f0 3d e6 44 84 be f9 e5 3c 3d 74 07 d6 3d
       0.11723213 -0.25833815 0.046117757 0.1045064
000230 92 36 55 bc 2f 51 f1 3d 9c 11 50 3e 45 ff a3 3d
       -0.013013499 0.11783063 0.20319217 0.08007673
000240 d1 37 7d be 12 6a 14 3e 52 d8 88 bd c8 e2 5b be
       -0.24728324 0.14493588 -0.06681885 -0.21473229
000250 7e 39 5a 3e 3a 71 24 bd c9 f6 8d bc a8 0f 8d 3e
       0.21310994 -0.040147044 -0.01732959 0.27551007
000260 79 49 0b 3d 5b 09 b0 3d 66 ea b2 3e bf 31 12 3e
       0.034005616 0.085955344 0.34944457 0.14276789
000270 ce 89 09 be 88 da a0 3e 9f 72 c6 bd 6f dd 11 3e
       -0.13431475 0.31416726 -0.09689831 0.14244626
000280 25 6a b8 3e 3e 63 3e 3e 79 03 e3 bd ae 77 2c be
       0.36018482 0.18592545 -0.11084647 -0.16842529
000290 d1 16 39 be 63 9d 0a be db 86 79 be 4b b6 83 3e
       -0.1807511 -0.13536601 -0.2436785 0.25725016
0002a0 c9 ab f3 bd 36 d3 6c 3e d0 6c 13 be 66 db 60 3b
       -0.11898 0.23127446 -0.14396977 0.003431046
0002b0 fc 4a 8f bd 4b 16 ab 3d 19 3e ed bc 9d 7b 6e be
       -0.06996724 0.083538614 -0.028960275 -0.23289342
0002c0 15 50 7f 3e 44 45 c9 3c e7 cc 58 3e d2 a2 51 be
       0.24932893 0.024569161 0.21171914 -0.20472267
0002d0 73 f4 34 3e d4 40 0f 3e d1 0a 1b be 4f fb b6 bd
       0.17671375 0.13989574 -0.15140845 -0.08934652
0002e0 49 2e 9c 3c 5e e4 99 3e 31 da 6b bc 5f 0b a7 3b
       0.01906504 0.30057043 -0.014395283 0.005097791
0002f0 3e f1 61 bd 1e 36 ed bd 00 08 3e 3d 2b 2f 2e bd
       -0.055161707 -0.11582588 0.04639435 -0.04252545
000300 c2 86 76 3e 66 49 0e be 7e 2f c8 3d 48 1e 69 3e
       0.24074844 -0.13895187 0.097746834 0.22765458
000310 eb 62 6e 3e 7f ab d7 bc aa 09 93 be 63 0f ab be
       0.23279922 -0.026326893 -0.2871831 -0.33410177
000320 e9 ca 80 be 5b 24 83 be 35 e7 18 bd 37 89 c0 3d
       -0.25154808 -0.25613675 -0.03732987 0.09401172
000330 3c 9b 8b be fa ab 92 bd 3f 56 6f 3e 1a d0 21 3d
       -0.27266872 -0.07161708 0.23372744 0.0395051
000340 a3 c0 00 3e b7 90 9a 3d 51 95 b2 bd 2d 1e 9d 3d
       0.12573485 0.075471334 -0.08719886 0.07671771
000350 77 d7 95 bd c0 5d ea 3d 43 66 c5 3d f1 a6 6f 3d
       -0.07316487 0.11443663 0.096386455 0.058508817
000360 5a de a3 bd 40 69 d6 ba b8 14 27 be c0 8f 0b be
       -0.080013946 -0.0016358271 -0.16316497 -0.13629055
000370 26 b9 60 bd 87 c9 59 3e 50 80 4d 3e 8d ee 5e 3d
       -0.05486407 0.21268283 0.20068479 0.05442672
000380 a2 5f 00 3c 40 4b f8 bd 51 78 a6 bd a2 89 5e 3d
       0.007835301 -0.12123728 -0.08128417 0.054330476
000390 df 88 1f bd 9a ef 3b be 72 ea 4c 3e be 8b 08 be
       -0.03894889 -0.1835312 0.20011309 -0.13334557
0003a0 49 f3 0b 3e a0 88 9b be 2c 26 19 bc 9f 30 94 bd
       0.13667025 -0.30377674 -0.00934748 -0.07235836
0003b0 dc 76 7b 3e d4 ac 2d be 18 34 97 3d 33 f6 df 3e
       0.2455706 -0.1696046 0.07382983 0.43742523
0003c0 39 c2 8e 3e b8 e0 99 3e a9 32 a7 be 8f b6 7d be
       0.27882555 0.3005426 -0.32655838 -0.24776672
0003d0 92 45 33 be c7 91 26 bd 67 54 93 3d ef 9d 92 3d
       -0.17507008 -0.040666368 0.07193833 0.0715903
0003e0 bb 95 f6 bd 39 12 1c 3e 48 db af 3d f1 7b 2d 3e
       -0.120402776 0.15241326 0.085867465 0.16941811
0003f0 ae 38 90 3e 97 37 68 3e 5c 80 6f be 7d 6c 15 3e
       0.28168243 0.22677456 -0.23388809 0.14592166

encoder.0.0.bias f4 [84]
000000 60 e2 17 be 23 38 6f bd e4 a1 8a bd 66 04 84 bd
       -0.14832449 -0.058403146 -0.067691594 -0.064461514
000010 37 16 0f be 14 61 33 3e 1a be 8a 3e cc b4 cf 3d
       -0.13973318 0.17517501 0.2709816 0.10141906
000020 f3 54 22 3e c7 7a fc bd 84 47 f3 bd 29 64 43 bd
       0.15852718 -0.123281054 -0.11878875 -0.047702942
000030 a4 e1 05 be 31 9e f7 bc 8d 8d 2c 3e 06 1e f7 3d
       -0.13074356 -0.030226799 0.16850872 0.120662734
000040 30 09 3d be 7f 0c 67 3d ae 6e 19 3e f8 80 5f 3e
       -0.18460536 0.0564084 0.14983627 0.21826541
000050 d2 42 39 be 99 2e 80 3c a3 50 60 bc 12 d1 bc bd
       -0.18091896 0.01564722 -0.0136911 -0.092195645
000060 0b a9 0c 3d ba aa 05 3e 30 c3 70 bc df 01 04 3e
       0.0343409 0.13053408 -0.014694974 0.12891339
000070 8a 9e 36 be 56 ef 46 3e ac a6 fb 3d 7c 52 25 3d
       -0.17833915 0.19427237 0.122876495 0.040361866
000080 8a 18 bc bd 03 b1 51 be 1f 6e e3 3b 14 1f ac 3d
       -0.09184368 -0.20477681 0.0069406177 0.08404365
000090 c6 03 26 3e 73 ff b5 3d de 81 00 bd 85 dd fc 3d
       0.16212377 0.08886614 -0.03137385 0.12346939
0000a0 b2 28 fa bd bc 48 58 bd 25 c1 32 3e 20 44 8d bc
       -0.12214793 -0.05280374 0.17456491 -0.017244399
0000b0 e4 a2 33 be e2 29 34 3e 31 80 03 be e0 12 d3 3d
       -0.17542607 0.17594102 -0.1284187 0.103063345
0000c0 14 68 6a 3e e8 25 b6 3d 92 8a aa bd 68 26 1f 3e
       0.22891265 0.08893949 -0.083272114 0.15541995
0000d0 99 80 73 bd 1b 2e 69 bc 6a d4 44 be 7e cf 0d 3d
       -0.059448812 -0.014232184 -0.19221655 0.034621708
0000e0 28 56 0a be bb 23 1f be 91 0b 89 3d 95 6e 63 be
       -0.13509429 -0.15540974 0.06691659 -0.22210152
0000f0 c9 ab 09 3e 20 ec 38 3e 8f 4a 00 be a6 6c cf 3d
       0.13444437 0.18058825 -0.12528442 0.10128145
000100 c9 3b 07 3e ca 6d cc bc 08 ee 11 be 85 c8 6b bd
       0.132064 -0.024954695 -0.14250958 -0.057564277
000110 c3 45 9a 3d 79 c6 12 bd d9 7f 6e bc 17 7e 05 be
       0.07532837 -0.03583381 -0.014556848 -0.1303638
000120 75 85 2a 3b 6a 9a 56 3e 0c 9e de 3d ea 4b 83 bd
       0.0026019488 0.20957342 0.10869989 -0.06410964
000130 a8 a4 ab b9 ae f9 08 be 95 a5 52 be df bf 27 be
       -0.0003273834 -0.13376495 -0.20570977 -0.16381787
000140 58 ad 23 be 4c 83 d5 3d 37 da 5c 3d a7 2e c9 3d
       -0.15984094 0.104254335 0.053919043 0.09823351

encoder.0.1.weight f4 [84]
000000 30 34 5c 3f b3 41 6e 3f a6 b7 53 3f 10 75 2d 3f
       0.8601713 0.93069 0.827021 0.6775675
000010 f7 83 76 3f 63 a9 24 3f 9a 7d 4c 3f 00 26 3e 3f
       0.9629511 0.64320964 0.7987915 0.74276733
000020 b3 11 5c 3f ee 94 91 3f 4b 41 6e 3f bb 1c 50 3f
       0.85964507 1.1373575 0.9306838 0.8129384
000030 09 36 60 3f f1 13 7e 3f a1 45 7a 3f 37 69 62 3f
       0.8758245 0.9924918 0.97762495 0.88441795
000040 e9 dd 90 3f b3 54 2d 3f f7 dc 58 3f d5 e5 54 3f
       1.1317722 0.67707366 0.84712166 0.83163196
000050 bd c8 51 3f 48 65 33 3f 6a 70 61 3f 73 71 7e 3f
       0.8194693 0.7007642 0.88062155 0.9939186
000060 40 d8 99 3f b1 cd 35 3f fd 6f 51 3f 80 63 76 3f
       1.2019119 0.71016985 0.81811506 0.96245575
000070 d7 0f 91 3f 5f 6e 51 3f 20 2b 9e 3f e8 f7 8a 3f
       1.1332959 0.8180904 1.2356911 1.0856905
000080 ae 76 3a 3f 4d 95 7e 3f 00 e8 69 3f a3 f3 72 3f
       0.7283734 0.99446565 0.9136963 0.9490301
000090 12 f0 96 3f 60 4e 86 3f 8c 06 62 3f b8 76 7e 3f
       1.1792014 1.0492668 0.8829124 0.993999
0000a0 3d 65 70 3f d0 09 5e 3f 8b 5d 97 3f e3 fe 51 3f
       0.9390448 0.8673372 1.1825422 0.8202955
0000b0 3d f7 6e 3f 64 fa 7d 3f a2 95 74 3f 99 5c 22 3f
       0.93346006 0.9921019 0.9554082 0.6342254
0000c0 e4 99 a0 3f 65 39 85 3f 1d de 88 3f cc 82 5e 3f
       1.2546964 1.040814 1.0692784 0.8691833
0000d0 39 0d 82 3f e8 0f 6d 3f 24 c3 26 3f f1 8c 8e 3f
       1.0160285 0.92602396 0.6514151 1.1136762
0000e0 d0 d5 78 3f f7 b0 21 3f bb d9 7e 3f f7 78 30 3f
       0.9720125 0.6316065 0.9955098 0.6893458
0000f0 1e b8 9b 3f d3 b4 3e 3f 71 c9 51 3f 93 1e 49 3f
       1.2165563 0.74494666 0.81948 0.7856228
000100 1d de 91 3f 3a 33 52 3f 2f b2 4f 3f 1a a2 39 3f
       1.1395909 0.82109416 0.8113126 0.7251297
000110 c0 f6 98 3f 57 3d 62 3f 97 64 80 3f dc 79 7a 3f
       1.1950302 0.8837485 1.0030698 0.9784219
000120 fc f3 75 3f 38 5d 8d 3f be d8 3b 3f f4 d8 75 3f
       0.96075416 1.1044073 0.733776 0.9603417
000130 86 49 98 3f 41 92 52 3f 43 37 55 3f fb a2 95 3f
       1.1897438 0.82254416 0.8328745 1.1690363
000140 e6 15 80 3f a1 47 74 3f 05 e9 4b 3f 85 95 30 3f
       1.0006683 0.954218 0.79652435 0.6897815

encoder.0.1.bias f4 [84]
000000 c2 88 a5 be e6 16 a2 be 91 9a 1e 3f d1 b6 49 3d
       -0.323309 -0.31658095 0.619546 0.049246613
000010 8c 05 67 3d 2f 33 03 bf ce a3 f9 3c e4 19 e9 be
       0.056401774 -0.51249975 0.030473616 -0.45527565
000020 31 1d 4d bd f0 d2 15 bf e2 54 92 be 9c 9c ae 3e
       -0.050076667 -0.5852499 -0.28580385 0.34103858
000030 3d a6 a1 3e 48 78 6d 3d cc 0a 89 be 03 e4 6e be
       0.31572142 0.057976037 -0.2676605 -0.23329167
000040 f3 91 f2 3d 5d c0 c4 be 91 9e b7 be 8b 15 bf be
       0.11844244 -0.38428012 -0.35863164 -0.37321123
000050 1d 5a 96 be 63 cb 0f bf 79 22 59 be 02 10 ef be
       -0.29365626 -0.5616972 -0.21204557 -0.466919
000060 9c b6 aa bc 3f e0 e8 be 0b 93 2b be 65 b3 a3 be
       -0.020839028 -0.45483586 -0.16755311 -0.31972805
000070 d0 59 a7 3d 43 8a 94 be 41 aa 54 3e 77 e7 89 3e
       0.08171427 -0.29011735 0.20768072 0.26934406
000080 45 eb c8 be 57 e1 26 3d d8 59 37 bd c7 1b ea be
       -0.39241996 0.040742245 -0.044763416 -0.45724317
000090 4c b2 cb 3e 3f 96 2a ba 88 5e bb be a5 d9 83 3e
       0.39784467 -0.0006507374 -0.3659556 0.25751987
0000a0 a6 be 4c be 9e 4b 96 be 3a 61 2f 3f c1 13 01 bf
       -0.19994602 -0.29354566 0.6850773 -0.5042077
0000b0 45 46 18 be 10 30 29 3d 24 d6 4f 3e be 02 d4 be
       -0.14870556 0.0413056 0.20296532 -0.41408342
0000c0 c9 60 90 3d d0 27 09 3f 34 7f 11 be 1a 42 96 be
       0.0704971 0.53576374 -0.1420868 -0.29347306
0000d0 d6 2d 8f 3d ce 26 86 3d dd 57 00 bf b7 bf c0 3d
       0.069911644 0.0655037 -0.5013407 0.09411567
0000e0 67 d9 af 3d 4a 3d ae be af 28 7e bd 8a 7d af 3d
       0.08586388 -0.34031135 -0.062050518 0.085688666
0000f0 64 da b0 3d 0b c5 95 be 9d c2 69 3d 56 42 c9 be
       0.08635405 -0.29251894 0.057070363 -0.39308423
000100 66 4a 23 be be 80 b6 3e c4 5f 8c 3e 8e 3d 44 be
       -0.1594635 0.35645097 0.27416813 -0.19164106
000110 a7 81 9d 3f 54 3f a6 be 4e dc 9e 3c b8 dd b0 bd
       1.2305192 -0.3247019 0.019392159 -0.086360395
000120 16 50 60 bd b6 a5 c1 3d 07 1e d7 be 7e 0c 20 3e
       -0.054763876 0.09455435 -0.42015097 0.15629765
000130 6d 87 86 3e 7d 7d d9 bd be 15 fb be 7d 64 e8 bd
       0.26275197 -0.10619638 -0.49040025 -0.113472916
000140 0c 8a 2f be 1f c2 72 3f 36 9a 32 be ac 4d 78 be
       -0.17142504 0.94827455 -0.1744164 -0.2424838

encoder.0.1.running_mean f4 [84]
000000 5a f2 98 bf a6 d9 ae bd 37 5c fa bd 32 cb fc bd
       -1.194896 -0.08537607 -0.1222462 -0.12343444
000010 75 c9 09 be 5f 1a 57 3f 41 d4 0d 3e 37 82 6a 3b
       -0.13455756 0.84024614 0.138505 0.003578318
000020 63 36 89 3e d7 a7 f2 bd 7c 80 07 bd ce fa 06 be
       0.26799306 -0.11848419 -0.033081517 -0.13181612
000030 5a 30 37 be 1c 62 da bd 0b e4 bb bf d3 f4 7a 3e
       -0.17889538 -0.10663244 -1.4678968 0.24507456
000040 d5 72 40 be 4a de 62 3f 93 59 86 bd a2 6d 87 3d
       -0.18793805 0.88620436 -0.06560054 0.06612708
000050 1e 4a 82 be e7 5e 6b bf 3f 55 c3 bf 5f f3 12 be
       -0.25447172 -0.91941684 -1.526039 -0.14350651
000060 f2 51 b1 bd 74 f2 aa be 5c 18 59 3f 2d bb 5e be
       -0.08658208 -0.33388102 0.84802794 -0.2175109
000070 2c 78 0c be 8b 22 a2 3e a0 f9 b3 3d d5 cf f4 3c
       -0.13717717 0.3166698 0.087878466 0.029884258
000080 26 1b 27 3e 5b 06 4c be a9 3b cd be 66 f2 21 be
       0.1631895 -0.199243 -0.4008458 -0.15815124
000090 17 9e 2f 3e 00 58 fd 3d dc 1b 1a 3e ad fd c5 3d
       0.1715015 0.123703 0.1504969 0.096675254
0000a0 e5 08 e6 bb 2d c9 bc bf 53 56 d4 3d 3d dc 01 bf
       -0.0070201033 -1.4748894 0.103680275 -0.5072668
0000b0 ca 54 81 be 3d b2 cb 3d 10 c6 4d be d0 c7 49 3f
       -0.2526 0.09946106 -0.20095086 0.78820515
0000c0 49 b5 57 3e 9b f1 a2 3d 7c e0 3d bc db 5f a1 bf
       0.21065249 0.07956239 -0.011589166 -1.2607378
0000d0 0d c9 e8 bc 35 64 82 bf 89 11 be bd 18 8f 65 3c
       -0.028416181 -1.0186831 -0.09280688 0.014011167
0000e0 4a 1c 45 be 11 c4 1c bf 4d 33 bc 3d 32 7e d9 bd
       -0.19249073 -0.61236674 0.09189472 -0.10619773
0000f0 c5 5d 24 be 02 10 77 3f 40 0f 2f be a1 5d c9 bd
       -0.16051395 0.965088 -0.17095661 -0.098323114
000100 80 6b 47 3d 38 7b a2 bd c5 9c 41 be 6c fb 7c 3f
       0.048686504 -0.07933658 -0.18907459 0.9882114
000110 4c 9a 2a bc 42 6f 90 bf fa d0 37 bd 9b bc cb 3d
       -0.010412764 -1.1283953 -0.04487703 0.09948083
000120 a6 88 e9 3b e8 48 56 3e 9d 52 77 3d ae f6 db bd
       0.0071268855 0.20926249 0.06038152 -0.1074041
000130 90 4f 0f 3d 6d 06 b6 3e c8 dc fc bd 97 bf 5f be
       0.034987986 0.35551777 -0.12346798 -0.2185043
000140 fb 2a 20 be 99 c0 83 3d 21 ac 12 3e a0 54 8d bd
       -0.15641396 0.064332195 0.14323474 -0.069009066

encoder.0.1.running_var f4 [84]
000000 d9 34 a7 3e 55 29 80 3c 4c e6 f3 3c d7 e3 2f 3c
       0.32657507 0.015644709 0.0297729 0.010735474
000010 a5 c5 48 3c 8d 54 3e 3e 01 97 97 3c 6e 1a b8 3c
       0.012254153 0.18586941 0.018504621 0.02247354
000020 95 a9 cb 3c e2 e4 c8 3b f2 37 02 3c 2a 27 d5 3b
       0.024861136 0.0061308006 0.007947909 0.006504913
000030 a1 75 8d 3c 18 ed 27 3d d8 85 8f 3f 46 c7 b0 3d
       0.017268004 0.040997595 1.1212721 0.086317584
000040 5e 9d 82 3c 14 bf 61 3e 07 83 cc 3d 64 e5 43 3c
       0.01594418 0.22045547 0.09985929 0.011956546
000050 b4 8e bf 3b a0 15 86 3e 75 7a 24 3f 40 48 1a 3c
       0.005845869 0.26188374 0.64249355 0.00941664
000060 3b 72 03 3d 32 44 b4 3d d9 b4 5a 3e 94 82 6e 3d
       0.03209136 0.0880207 0.2135805 0.058229998
000070 77 1d 1b 3c 62 b5 87 3d 26 ac a2 3c d6 10 0f 3c
       0.009467474 0.06626393 0.019857477 0.008732041
000080 6a 90 d1 3d c3 b6 d4 3c 3b a6 a2 3d 6f 83 41 3d
       0.10232623 0.025966054 0.07941862 0.047244485
000090 f0 02 fc 3b 61 0e e3 3c 0d b3 d7 3c b6 9f d7 3c
       0.00769078 0.027716817 0.026330495 0.026321273
0000a0 72 1d 9c 3b dc ec 57 3f 5f 75 65 3c 47 2b f4 3d
       0.0047642523 0.84345794 0.014005034 0.11922317
0000b0 b4 7f 57 3c 75 b1 5a 3d c3 76 30 3d bd 89 5c 3e
       0.013153005 0.053391892 0.04308201 0.21536918
0000c0 56 a4 04 3c c1 f5 16 3d 51 a7 21 3d 1b 36 0b 3f
       0.008095821 0.036855463 0.039466206 0.54379433
0000d0 63 c8 55 3c 8a cb 97 3e 33 bf eb 3c 0f 2a 3e 3c
       0.013048264 0.29647475 0.028777694 0.011606707
0000e0 46 aa 90 3c 5c a1 7c 3d 7e 91 0b 3d 5f d5 ca 3c
       0.017659318 0.06167732 0.0340743 0.024759946
0000f0 0b 70 01 3d 05 0e a4 3e 77 41 ab 3c ec 7b e8 3c
       0.031600993 0.32041946 0.02090524 0.028379403
000100 c3 00 1c 3d ec 08 a0 3c e5 dd 3e 3c 5f 12 9f 3e
       0.038086664 0.019535504 0.0116495835 0.31068704
000110 92 42 02 3d 95 17 e7 3e 98 f7 2b 3d 5a 60 be 3c
       0.031801768 0.4513518 0.04198417 0.023239303
000120 4d c7 54 3c aa f4 6c 3c 78 36 44 3d 9f 18 33 3c
       0.01298697 0.014462629 0.047903508 0.010931163
000130 ad 67 a7 3c df 17 02 3e 29 0e 3b 3c 86 31 6b 3d
       0.020435179 0.12704419 0.01141695 0.057420276
000140 ee 19 40 3b f2 c8 bf 3c 19 1e a9 3c 9d 44 a4 3c
       0.002931233 0.023411248 0.020644234 0.020052249

encoder.1.0.weight f4 [84, 84, 3, 3]
000000 de c5 55 bc 36 2e e7 bc 58 db 9c 3d ca ad bb 3d
       -0.0130476635 -0.028220277 0.07659024 0.09164007
000010 06 c2 c2 bd be 75 ed bd b6 6a c3 bc 13 04 ab bd
       -0.09509663 -0.11594723 -0.023854595 -0.083503865
000020 0d a2 8d be da 7e 64 3d ea d5 1c 3e bf bb 34 3e
       -0.27662697 0.055785038 0.15315977 0.17649744
000030 36 8e 44 3e 4f f4 ff bd 26 0e d4 3c 01 e2 39 3e
       0.19194874 -0.1249777 0.025885653 0.1815262
000040 08 fb 8f 3d a7 d6 73 bd b2 9a 1b 3e 46 ca c9 3d
       0.07030302 -0.05953088 0.1519573 0.09853034
000050 83 cd 85 bc 35 58 09 bd 5e e4 de 3d 58 2d a2 bc
       -0.016333347 -0.033531386 0.10883401 -0.019797012
000060 01 61 93 bd 7e f0 42 b9 c1 14 3d bc 41 15 03 3d
       -0.071962364 -0.00018590872 -0.011540593 0.03200269
000070 7c 23 71 3c 39 c4 7b 3d 72 16 a9 bd e7 fa 14 3d
       0.014717933 0.06146643 -0.08256234 0.03637209
000080 83 e6 41 3e 28 b0 57 3c 66 2a ff bc 17 49 24 3e
       0.1893559 0.0131645575 -0.031148147 0.16043507
000090 a7 82 40 be 8d 5b 04 be 5f c0 8d be 84 a2 8d be
       -0.1879984 -0.12925549 -0.2768583 -0.27663052
0000a0 5f 17 36 be fd 96 72 be 51 06 7d be b9 09 18 be
       -0.17782353 -0.2369041 -0.24709441 -0.14847459
0000b0 fb 83 57 be d2 b8 c7 bc 4d 8e a5 bc 0c f4 8d 3c
       -0.2104644 -0.024380121 -0.020209456 0.017328285
0000c0 a6 fc a8 bb 9b b6 4c 3c 6a 05 71 3d b9 05 68 bb
       -0.005157071 0.012494708 0.058843054 -0.0035403802
0000d0 eb 3e 82 bc 57 f5 ae 3d ed eb 20 bd d8 23 6c 3c
       -0.015899142 0.085428886 -0.039287496 0.014412843
0000e0 1d 3b fc bd bf d6 b4 bd 55 94 05 3d 32 db 91 3d
       -0.123159625 -0.08830022 0.032612164 0.07121886
0000f0 0a 53 06 3d 0b 07 76 3d 71 15 66 bd 15 65 88 bd
       0.032794036 0.06006531 -0.056172792 -0.06659905
000100 c3 8a e2 bd 1e 99 0b be 71 bf a7 bc dc 97 a9 bd
       -0.11061623 -0.13632628 -0.020477029 -0.08280918
000110 54 5f df bd b1 7b be bd c1 c5 b9 bd 21 45 6d be
       -0.10906854 -0.09300936 -0.09070922 -0.23170902
000120 17 a5 27 3c f8 55 1c 3c 19 ec d5 3b b5 46 28 bd
       0.010232232 0.009541981 0.006528389 -0.041083056
000130 64 2c 1c bb 51 f5 5e 3e f3 c3 61 3b a7 18 f7 3d
       -0.002383017 0.21773268 0.003444907 0.12065249
000140 07 a7 dc 3d af dd 6d 3e 3d b0 f2 3d c0 ed 1c bd
       0.107740454 0.23229097 0.11850021 -0.038312674
000150 cf bf 00 3e 20 b4 3c 3e 6a 67 8c 3d c5 18 8e 3d
       0.12573169 0.18428087 0.06855662 0.06938318
000160 a2 f0 3c 3e d5 6d 56 3e ab 2a 90 bd 00 e3 98 bd
       0.18451169 0.20940335 -0.07039388 -0.07465172
000170 ff a2 fc 3c 97 77 8f bd d6 f6 4e 3d c1 ff a3 3c
       0.030839441 -0.07005232 0.05052837 0.020019414
000180 fa eb 03 bd 12 02 11 3d 39 17 81 3d 8e 91 54 be
       -0.032207467 0.035402365 0.063032575 -0.2075865
000190 df 55 a5 bd 1b 8c f3 bc e1 f7 fc bd d2 81 de be
       -0.08073019 -0.029729893 -0.12351967 -0.4345842
0001a0 41 b9 b3 3d ef 88 00 be f3 2e 76 be 7a 21 8e 3d
       0.08775569 -0.12552236 -0.24041347 0.06939979
0001b0 8c 86 f9 3d c1 41 40 be 9f 67 ef bd c9 a0 f8 3c
       0.12183866 -0.18775083 -0.11689686 0.030350106
0001c0 58 36 41 bd 5f b0 99 3b b3 b8 a1 bd 07 34 78 3d
       -0.047170967 0.0046902145 -0.07896557 0.060596492
0001d0 ee b8 14 3d d7 06 19 3e c3 e6 ae 3d 71 0d db 3d
       0.036309175 0.14944015 0.08540108 0.10695923
0001e0 6d 72 83 3d 08 67 5f 3e ed 30 37 3e 21 14 3c 3d
       0.06418309 0.21816647 0.17889757 0.045917634
0001f0 a1 5c 33 3e 6e 95 0f 3e 62 7f 65 bc 90 ad ed 3c
       0.17515804 0.14021847 -0.014007421 0.029013425
000200 c7 26 88 bd 55 1a 2a 3d fb 9a 96 3d 14 d2 aa bd
       -0.06648021 0.04152902 0.07353779 -0.083408505
000210 61 39 9c bc 05 3c 88 3a 60 4c 55 bd 4a 18 88 bd
       -0.01907033 0.0010393864 -0.05207479 -0.06645258
000220 62 b3 b7 bd 83 74 df bd 57 11 86 be cd 62 21 bd
       -0.089697614 -0.10910895 -0.26185104 -0.039400864
000230 92 2e 76 3b 90 ef 55 be c0 cd 8c 3c 32 71 59 bc
       0.003756438 -0.20892167 0.017187953 -0.013271617
000240 33 b4 64 be b5 6e 30 bd 29 1d 9d bc 16 4e 8b be
       -0.22334366 -0.04307433 -0.019178944 -0.27208012
000250 6c 0f 54 be be 18 c9 bd 6d fb 7e be 64 18 3e be
       -0.20709008 -0.09819172 -0.24900599 -0.18563992
000260 01 d4 2f be 04 a4 42 3e 8a cc 1a 3e 9c 39 ec 3d
       -0.17170717 0.1900788 0.15117088 0.115344256
000270 40 e1 95 3d d9 6a a9 3d 8f d4 28 3e b6 3f d7 3d
       0.07318354 0.08272333 0.16487335 0.10510199
000280 03 45 05 3e 65 44 0d 3e 77 f1 0d be c7 b6 fc bd
       0.13014607 0.13795622 -0.13861643 -0.123395495
000290 76 46 8a bd fd c6 29 be 43 00 a5 bc ae 48 ed 3d
       -0.067517206 -0.16579814 -0.020141726 0.11586128
0002a0 6a d3 fc bc 6c 96 cc 3c 57 6c 2c 3e 7e cc 46 bd
       -0.030862529 0.02497407 0.16838203 -0.048534863
0002b0 30 e4 35 3e b5 f8 4a 3e 38 3e 6a 3c 40 7b 21 bd
       0.17762828 0.19821437 0.014297061 -0.03942418
0002c0 27 f4 e0 3d 60 f5 d6 3d 01 29 4b bd 3d 97 93 3c
       0.10984068 0.1049602 -0.04959965 0.018016452
0002d0 38 99 d7 3d aa 2a f6 3d 57 8e 14 3b 0b 8f 81 3d
       0.10527271 0.12019856 0.002266785 0.063261114
0002e0 2a c0 f3 3c c9 b3 4f bd dd 7b c2 bc 73 2a 0d 3c
       0.029754717 -0.050708566 -0.023740703 0.008616078
0002f0 ab 42 8e 3d 45 9f a1 bd bb a1 f4 bd 4e 79 15 bd
       0.0694631 -0.078917064 -0.1194491 -0.03649264
000300 d1 f5 83 bd 45 1b 1b be 37 13 1e be 77 e0 27 bc
       -0.0644337 -0.15147121 -0.15437017 -0.010246388
000310 ec 7c fa bc 5e e3 6a be 69 ca b2 bd 6d cd 29 be
       -0.030577146 -0.22938296 -0.08730013 -0.1658227
000320 f8 47 0f bd ad 25 8e 3c 93 2a 47 be a6 57 73 be
       -0.034980744 0.01735195 -0.19449835 -0.23763904
000330 19 11 8e bd b0 56 1c bd 1f e1 09 be ce 35 1f bb
       -0.06936855 -0.03816861 -0.13464783 -0.0024293545
000340 8b 02 c8 bd c5 d4 38 be 81 cd 31 bd 14 0c bd bd
       -0.0976611 -0.18049915 -0.043408874 -0.09230819
000350 f0 8c 07 be 82 f3 9d bc e0 e0 5e 3c 86 92 1a 3c
       -0.13237357 -0.019281153 0.013603419 0.009434348
000360 0d dc 64 3e a5 7f c9 3d 29 a8 45 bd 1a 45 ea 3d
       0.22349568 0.098387994 -0.048256073 0.11438961
000370 13 05 bf 3d 7f 19 29 bd ab fd b4 bc ad 41 4b 3d
       0.0932714 -0.04128408 -0.022093615 0.04962318
000380 0f 12 46 3d 77 f9 21 be 1d 82 cc bd 42 74 fe 3d
       0.048357066 -0.1581782 -0.09985755 0.12424518
000390 1a 63 01 be 7a 3a 41 be fd 6b ee bc 51 98 d7 bc
       -0.1263546 -0.18869963 -0.029104227 -0.026317747
0003a0 f0 7c 55 be a6 9d 93 be 61 33 6d 3e e6 79 1b 3e
       -0.20848441 -0.28831214 0.23164131 0.1518322
0003b0 2a fb ef 3d 57 f0 e3 3d 31 99 ee 3d 20 57 32 3e
       0.117178276 0.111298256 0.11650313 0.17416048
0003c0 59 ad 0a 3e ad 97 df 3d b2 38 bf 3d ee 04 33 bd
       0.1354269 0.10917602 0.09336986 -0.043705873
0003d0 9e a2 8c bd 56 89 52 bd aa d3 b3 3b 5d 05 90 3d
       -0.06866954 -0.051400505 0.005487879 0.07032273
0003e0 cf 23 f7 bd 3e d8 39 bd d7 5a 86 3d 3e 30 50 bd
       -0.12067377 -0.04537224 0.06560295 -0.050827257
0003f0 ff 03 11 3e 48 a3 df bd 82 2a d6 ba ec 59 18 3e
       0.1416168 -0.10919815 -0.0016339573 0.14878052

encoder.1.0.bias f4 [84]
000000 25 ec da 3b d3 ff 46 3c 1c 37 06 3c 7f 1d b4 bb
       0.0066809827 0.012145954 0.00819185 -0.0054966803
000010 4e 62 d4 3c da 05 8b bb 93 9f 88 3b 6f dd 16 3c
       0.025925782 -0.004242641 0.0041694134 0.009208067
000020 7c b3 72 3c be 1c 3c 3c ed 12 17 3c 13 d6 59 bc
       0.0148133 0.011481462 0.009220821 -0.013295668
000030 c8 11 76 bc 5d c1 2d 39 c6 1d 02 bc 11 dd e4 bc
       -0.015018888 0.00016570599 -0.007941669 -0.027937444
000040 45 ac e8 bb 6f 0b 14 bd 58 49 ea bc e2 f0 fe 3c
       -0.0071006143 -0.036143716 -0.028599426 0.031120721
000050 12 c7 91 bb 02 e6 f8 3c 9f 3d bf 3b 0c 20 bc 3c
       -0.00444878 0.030383114 0.005836203 0.0229645
000060 3b 5a 05 bd 36 44 db bb 29 8f 28 3c 4b 63 89 bb
       -0.032556754 -0.006691481 0.010288038 -0.004192745
000070 8a 94 09 bd c5 98 cd bc f6 31 72 bc 89 b3 a9 3c
       -0.033588924 -0.02509726 -0.014782419 0.020715492
000080 10 72 ee bb 48 8c 5f 3c 1d 93 f9 bc e6 08 e0 bc
       -0.007276781 0.0136442855 -0.030465657 -0.027347993
000090 90 a7 2b 3c c5 5f 07 3d cd 1f 09 3d 65 5a e9 3b
       0.010476962 0.033050317 0.033477593 0.0071213716
0000a0 b2 a1 08 3d b1 79 be bc c9 e3 8a bc db 5a 7b bc
       0.03335733 -0.023251386 -0.01695432 -0.015341486
0000b0 74 04 9d 3c 6e 33 02 3d 78 22 e3 bb c2 a4 de bb
       0.019167162 0.03178733 -0.006931599 -0.006794543
0000c0 74 01 07 3d 56 5d 3b 3c 26 aa f6 3c f5 b7 83 3c
       0.03296037 0.011435827 0.03011043 0.016078928
0000d0 78 1a 77 3b b6 3a 46 3c bb 7e c9 3b e9 15 bb 3c
       0.0037704986 0.012098959 0.0061491407 0.022837596
0000e0 a7 6b aa bc 99 ac d2 3c ef d1 75 3c 12 af 82 3c
       -0.020803286 0.025717067 0.015003665 0.01595262
0000f0 83 0a c7 bc 83 72 e0 3c a4 e5 fb ba e2 01 02 3b
       -0.024297005 0.027398353 -0.0019218219 0.0019837548
000100 e9 0c ff bc 55 55 94 bb 9b cb 1e 3c 1b 7e d0 bc
       -0.031134086 -0.004526774 0.009692098 -0.025450757
000110 45 96 87 bc 84 08 2b bc 08 3a 2b 3c a6 5d f1 3c
       -0.016551146 -0.010439042 0.010450847 0.0294636
000120 d9 c5 dd bc 49 ad 81 bc b7 96 11 3d 08 40 e4 3c
       -0.02707188 -0.0158297 0.035544124 0.027862564
000130 7a 57 3b bc d7 94 53 3c 18 b4 8a bc 73 85 bd 3c
       -0.01143443 0.012913904 -0.016931579 0.023134923
000140 3e 21 0b 3d 3d f9 a1 bc ff 03 f1 3c 71 f5 74 3c
       0.03396725 -0.019772166 0.02942085 0.014951096

encoder.1.1.weight f4 [84]
000000 16 a7 69 3f 4c 6e 20 3f 04 2a c8 3f ce a1 76 3f
       0.9127058 0.626683 1.5637822 0.96340644
000010 db 49 93 3f f3 5e 81 3f 7a 28 5e 3f 82 e0 65 3f
       1.1506914 1.0107101 0.8678051 0.89795697
000020 c6 11 6e 3f 6a 76 60 3f 1e 03 59 3f 30 f9 4e 3f
       0.9299587 0.87680686 0.8477038 0.8084898
000030 4d 7f 23 3f ef 2e 7b 3f fb fd 86 3f fe 84 77 3f
       0.6386612 0.9811849 1.0546259 0.96687305
000040 00 a8 9a 3f 11 88 58 3f c7 cc 67 3f ea f3 5d 3f
       1.208252 0.8458262 0.9054684 0.8670031
000050 90 b4 95 3f 67 52 44 3f b0 61 64 3f f5 a3 73 3f
       1.1695728 0.76688236 0.8921156 0.95172054
000060 57 ee 81 3f 63 b6 6e 3f 23 44 55 3f c5 97 88 3f
       1.015086 0.9324705 0.83307093 1.0671316
000070 06 2e 8f 3f f9 02 89 3f 9d 41 64 3f b1 f4 4f 3f
       1.118592 1.0704032 0.8916262 0.81232744
000080 07 11 59 3f e8 26 1c 3f 18 ae 4e 3f d4 9e 4d 3f
       0.84791607 0.60996866 0.80734396 0.8032048
000090 15 31 7b 3f fc e8 66 3f 38 ae 56 3f fa c1 8f 3f
       0.9812177 0.90199256 0.83859587 1.1231072
0000a0 64 76 3c 3f ab d4 67 3f fa 88 7b 3f 20 e5 7c 3f
       0.7361815 0.9055888 0.98255885 0.98787117
0000b0 1c c9 9b 3f 2f 5d 4b 3f 67 e9 96 3f bc eb 72 3f
       1.2170749 0.7943906 1.1789979 0.9489095
0000c0 63 35 53 3f 5a 2b 65 3f 11 b0 56 3f be ab 2c 3f
       0.82503337 0.89519274 0.83862406 0.6744956
0000d0 65 bb 9d 3f c0 52 63 3f 7a 56 76 3f 59 97 62 3f
       1.2322813 0.8879814 0.962257 0.8851219
0000e0 ec 62 81 3f 72 86 2d 3f 6d 96 74 3f 3e 6b 62 3f
       1.0108314 0.6778327 0.9554203 0.8844489
0000f0 65 13 9c 3f fd dc 70 3f 28 d1 58 3f 34 33 73 3f
       1.2193419 0.940872 0.8469415 0.95000005
000100 ef 41 73 3f 9f 95 5e 3f f4 5d a2 3f 8e 0e 39 3f
       0.9502248 0.86947054 1.2684922 0.72287834
000110 25 47 9e 3f 1e 1b 70 3f cd 17 54 3f d2 cb 7d 3f
       1.2365462 0.9379138 0.8284882 0.9913913
000120 bd 1d 88 3f ac f1 2b 3f bc ce 8f 3f 15 99 64 3f
       1.0634075 0.67165637 1.1234965 0.89296085
000130 08 c2 54 3f 03 0d 34 3f 6e 8a 7b 3f a7 81 76 3f
       0.8310857 0.70332354 0.982581 0.96291584
000140 f9 56 7b 3f 3f 98 4b 3f 67 bf 4f 3f 48 0e 76 3f
       0.98179585 0.79529184 0.8115143 0.9611554

encoder.1.1.bias f4 [84]
000000 43 7e 9b be fe ec ed be 10 6f 6c be 6b 07 8d be
       -0.30369768 -0.46469873 -0.23089242 -0.27544722
000010 4a af c3 be 1e df 9e be 9c 3d cb be 56 40 aa be
       -0.38219672 -0.310296 -0.39695442 -0.3325221
000020 e9 58 84 be dc f3 d3 be 4a c7 de be d8 b2 c1 be
       -0.25849083 -0.41396987 -0.4351142 -0.3783176
000030 81 be e5 be 07 83 c4 be e8 53 7b be b2 e8 42 be
       -0.44871905 -0.38381216 -0.24543726 -0.19034079
000040 81 96 ef be bd fe 5a be 4b 0e b1 be 4a 75 b7 be
       -0.46794513 -0.21386237 -0.34581217 -0.35831672
000050 04 e3 c2 be 54 65 dc be f3 ec a1 be 6c 84 c0 be
       -0.38063824 -0.43046057 -0.3162609 -0.3760103
000060 fa 9d b5 be 0f 28 f4 be 82 04 cf be 99 79 11 bf
       -0.3547209 -0.47686812 -0.40433127 -0.5682617
000070 8c 21 50 be 00 e1 a1 be 3b 70 d4 be ac 8f e2 be
       -0.20325297 -0.31616974 -0.41491875 -0.44250238
000080 ed 25 fd be 35 93 b1 be 62 7f ab be d0 31 9f 3c
       -0.49442998 -0.34682623 -0.33495623 0.019432932
000090 34 16 84 be a6 6c 78 be 04 d5 82 be 61 a1 0a bf
       -0.2579819 -0.24260196 -0.25553143 -0.54152495
0000a0 00 9c c0 be a2 a1 be be a7 14 0e bf 83 8a ee be
       -0.3761902 -0.3723269 -0.5550026 -0.4659005
0000b0 3e f0 c3 be 00 a4 e5 be 5b 6e c0 be fc 2b cb be
       -0.38269228 -0.44851685 -0.37584195 -0.39681995
0000c0 fb 91 9e be 37 93 5b be 2a 4b ee be 4c 73 9f be
       -0.3097075 -0.21442877 -0.4654172 -0.31142652
0000d0 56 3f a8 be 5b 01 7e be ae a8 dc be 3c 10 36 be
       -0.3286082 -0.24805205 -0.43097442 -0.1777963
0000e0 f6 16 ec be 6e a4 87 be c1 94 f5 bd c4 1b ae be
       -0.46111268 -0.26492637 -0.11991263 -0.34005558
0000f0 1c c8 e4 be 9c da e2 be 64 a8 89 be b9 24 dc be
       -0.4468392 -0.4430741 -0.26886284 -0.42996767
000100 3d c5 c2 be 97 6b 8f bd 4b 61 a4 be cd e8 cb be
       -0.38041106 -0.07002943 -0.3210548 -0.3982605
000110 0a cf cb be 6e c3 e0 be ae d3 d2 be 99 ea 83 be
       -0.39806396 -0.438991 -0.41177124 -0.2576492
000120 c8 b1 d5 be 4f 65 e0 be e3 2d 02 bf e9 fb 04 bf
       -0.417372 -0.43827292 -0.5085127 -0.51946884
000130 6a 9a b2 be 8d 38 c9 be ab 69 c0 be 42 c2 88 be
       -0.34883434 -0.39300957 -0.37580618 -0.26710707
000140 e7 10 a2 be 57 2c d8 be 77 d3 af be cd 8d b0 be
       -0.3165352 -0.4222133 -0.34341022 -0.34483185

encoder.1.1.running_mean f4 [84]
000000 61 27 ef c0 4f 4f a8 c0 55 73 dc c0 93 91 ad c1
       -7.473557 -5.259681 -6.8890786 -21.696081
000010 6e ed fc c0 5b f0 b6 c0 30 68 92 40 67 9a b8 3f
       -7.903983 -5.7168403 4.575218 1.442212
000020 32 15 5e c1 9b a0 4f c0 09 9a 74 3f df b8 ca c0
       -13.880175 -3.2441776 0.9554754 -6.3350673
000030 c8 05 9c c1 00 0d e9 c0 02 92 c8 c0 28 b8 e9 c0
       -19.502823 -7.282837 -6.267823 -7.30373
000040 49 b2 a0 c0 eb 90 cc c0 e6 fd 8c c1 16 b0 e9 c0
       -5.0217633 -6.39269 -17.623974 -7.302745
000050 c3 d7 fa c0 88 b5 4d c1 ef 29 4a c0 fe 59 70 c0
       -7.838838 -12.856819 -3.1588094 -3.7554927
000060 d0 19 2b c1 c1 81 c3 3e 3b 58 a2 3e 04 02 50 c0
       -10.693802 0.38184932 0.3170794 -3.250123
000070 ce b6 40 c1 dd 65 33 c0 1f 59 a6 c0 4a e1 bc 3f
       -12.04463 -2.8030922 -5.198379 1.4756253
000080 19 16 fe c1 9b 7f 1c c1 c1 fa 33 c0 22 24 11 c1
       -31.76079 -9.781154 -2.8121798 -9.0713215
000090 8e c4 21 c0 74 9f 6e c1 c0 0e 59 c0 99 1c e7 c0
       -2.5276217 -14.913929 -3.3915253 -7.222241
0000a0 b0 ea 0c c1 e7 32 28 c1 28 d0 fc 40 35 74 fe c0
       -8.807297 -10.512427 7.9004097 -7.9516854
0000b0 76 3b da c0 7e 37 9a bf d9 a6 7a c0 d1 78 b5 bf
       -6.8197584 -1.2048185 -3.9164336 -1.4177495
0000c0 2b a2 1c c1 d9 c4 23 c1 f2 79 f4 bf ed 35 2c 40
       -9.789592 -10.2355585 -1.9099715 2.6907914
0000d0 2a 1b a2 c0 02 3b e0 c0 5d 76 1b c1 d8 4c 0b 40
       -5.065816 -7.007203 -9.716397 2.1765652
0000e0 d0 c0 ae bf e2 59 36 c1 b6 55 a6 c0 09 49 87 3f
       -1.3652592 -11.396944 -5.1979628 1.0569164
0000f0 92 72 cd c0 94 44 0b c1 d1 b3 12 c1 5c ef 3f c1
       -6.4202356 -8.704243 -9.1689005 -11.995937
000100 3e 66 3c c0 0d 4a c2 c0 45 0d ec c0 ad d3 22 c1
       -2.9437404 -6.0715394 -7.37662 -10.176679
000110 e0 c1 94 c0 10 8a 97 c1 e4 94 32 c0 32 ed d6 c0
       -4.6486664 -18.942413 -2.7903376 -6.7164545
000120 c8 30 15 c1 af 5d 0d c1 06 1d 08 c1 fe ab aa 40
       -9.3244095 -8.835372 -8.507086 5.333495
000130 fb 32 ee c0 94 5a 97 c1 39 9f d1 bf 36 21 2d c0
       -7.443723 -18.919228 -1.6376716 -2.705152
000140 e1 a5 3b 3f cf 4d 85 c1 9a 04 82 bf 12 66 26 c1
       0.73299986 -16.662992 -1.0157654 -10.3999195

encoder.1.1.running_var f4 [84]
000000 41 f4 53 42 aa f5 75 42 ef 3a 43 42 da 75 24 43
       52.98853 61.489906 48.807552 164.46036
000010 bc 26 14 42 c6 22 2a 42 7b 88 27 42 07 a2 fc 41
       37.037827 42.53396 41.88328 31.579115
000020 3e 62 d1 42 7c c3 4f 42 a7 d3 72 42 d0 50 66 42
       104.69188 51.940903 60.70669 57.57892
000030 b1 e5 2c 43 a3 d0 70 42 99 97 9a 42 15 e9 7d 42
       172.89723 60.203747 77.29609 63.47762
000040 3f 2e 67 42 33 fd 6f 42 e4 9b eb 42 5c 1c a9 42
       57.795162 59.997265 117.804474 84.55539
000050 8b c1 76 42 f6 24 b5 42 60 39 81 42 8f 48 2b 42
       61.689007 90.57219 64.61206 42.820858
000060 00 d0 0e 42 ce e9 a6 42 60 bb 71 42 33 1b e6 41
       35.703125 83.45665 60.432983 28.76328
000070 77 dc 7d 42 ac 1e 0c 42 33 12 85 42 bc 6c 82 42
       63.465298 35.029953 66.535545 65.21237
000080 9b 3e 7e 43 ab 83 9a 42 e0 a6 ae 42 a2 59 08 43
       254.24455 77.257164 87.32593 136.35013
000090 69 92 43 42 c0 29 b6 42 56 e5 eb 41 6c 15 8e 42
       48.89298 91.08154 29.48698 71.04184
0000a0 1a ea 8e 42 be 68 b7 42 29 c1 45 42 1e 80 41 42
       71.45723 91.704575 49.438633 48.375114
0000b0 6b 71 61 42 2b 90 3b 42 c4 c2 68 42 05 e4 74 42
       56.36076 46.89079 58.1902 61.222675
0000c0 e9 4f 91 42 cd e9 77 42 a3 69 6e 42 52 0f 88 42
       72.656075 61.97832 59.60316 68.02992
0000d0 ff ca 98 42 92 15 a2 42 8d 3d 9a 42 29 0e 4c 42
       76.39648 81.04213 77.12022 51.01383
0000e0 cf df 10 42 1f 0e 7f 42 0f 16 7f 42 d3 12 07 42
       36.218563 63.76379 63.77154 33.768383
0000f0 f9 1f 9f 41 e8 63 23 42 e5 09 fb 42 96 52 75 42
       19.890612 40.847565 125.519325 61.33065
000100 76 ae 65 42 8c d0 9c 42 78 94 70 42 98 51 d6 42
       57.420372 78.40732 60.14499 107.15936
000110 ba 8b 66 42 27 19 11 43 ea 56 2e 42 1d 3f 0e 42
       57.63645 145.09825 43.584877 35.561634
000120 81 46 6a 42 8e 24 ae 42 a5 95 f6 41 14 fc 99 42
       58.56885 87.071396 30.823069 76.99234
000130 79 c7 1e 42 12 12 0b 43 2d 1b 6f 42 f4 ad cf 41
       39.694798 139.07059 59.77654 25.959938
000140 e9 33 0b 42 24 c2 11 43 07 18 73 42 74 dc 79 42
       34.800694 145.75836 60.773464 62.465286

encoder.2.0.weight f4 [84, 84, 3, 3]
000000 60 84 09 3e a5 c1 49 3d 3c 40 15 3e 47 b2 d0 3d
       0.13429403 0.04925694 0.14575285 0.10190254
000010 b9 6c c1 3c 9a 7b 21 3e a2 ac 2b 3d 56 6c 53 3d
       0.023611413 0.15769807 0.041912682 0.05161699
000020 8e 5f 79 bc 06 44 45 be 15 cf 42 3d 25 bb 8f 3c
       -0.015220536 -0.1926423 0.04756077 0.017545292
000030 3c 3c 45 be b2 88 d0 3d 5f f3 f0 3c f8 6b d0 be
       -0.19261259 0.101823226 0.029412923 -0.40707374
000040 42 c2 eb bd 9e c6 67 be 1b 0d 23 3d 42 cb 72 3d
       -0.11511661 -0.2263436 0.03980742 0.059275873
000050 80 0f 3a 3e 37 53 e8 bc b1 f7 3e 3d 74 76 a6 3d
       0.18169975 -0.028359992 0.046622936 0.08128062
000060 0c 7e 1a bb 20 57 77 3d 6c 0a 3d bd 55 91 34 be
       -0.0023573665 0.060385823 -0.046152517 -0.17633565
000070 79 11 19 be 9a cf 8b be ae e4 28 be ad 4a ce bc
       -0.14948072 -0.27306825 -0.16493484 -0.025182093
000080 92 61 29 be 65 e5 8f be 6c 14 c8 bd 68 8b 99 be
       -0.16541126 -0.28104702 -0.0976952 -0.2998917
000090 c5 bd 53 3e 6c 37 15 3e 22 7e c0 3d 4b a7 34 3e
       0.2067786 0.14571923 0.09399058 0.17641942
0000a0 ba 65 be 3c 1b 13 e2 bc 5d 3a 97 3e 00 15 cc 3d
       0.023241866 -0.027597 0.29536715 0.09964943
0000b0 30 fe 07 3e 30 25 7f 3d 61 74 89 bb d8 c0 32 3e
       0.13280559 0.062291324 -0.0041947816 0.17456377
0000c0 45 e6 7f 3d 8d 9e ff bb 7e a5 10 3e 10 f3 10 3e
       0.06247546 -0.007800883 0.1412563 0.14155221
0000d0 a6 1e b9 3d 57 6d 35 3e 16 7a 8f 3d d8 75 9e 3c
       0.09039049 0.17717491 0.07005708 0.019343302
0000e0 69 25 50 3d 15 4a 4f be 71 da 93 be 96 6f 6c be
       0.050816927 -0.20243104 -0.28877595 -0.23089442
0000f0 14 ff 56 3d 96 6d a4 bd 97 f6 07 bd 9a 8c 90 3c
       0.052489355 -0.08028714 -0.03319415 0.017645169
000100 36 a3 24 be 9b a8 ad bd 42 77 d9 bb 5d 6f 4b be
       -0.16077885 -0.084794246 -0.006636531 -0.198667
000110 d1 34 f8 bd b8 b2 42 3e 3e ec 8c bc 22 be 2c 3d
       -0.12119449 0.19013488 -0.017202493 0.042173512
000120 3d ce 58 be 60 18 61 be 9e 20 9e be af a0 23 be
       -0.21172424 -0.21981955 -0.3088426 -0.15979265
000130 f2 4e 9c bd 04 43 65 be 37 94 47 be 59 2d ac bd
       -0.07632245 -0.22388846 -0.19490133 -0.08407087
000140 72 e7 72 be e7 80 6c 3c e3 22 49 3d 2f 6f 76 3d
       -0.23721102 0.01443503 0.049105536 0.060164627
000150 2b 3f 00 be 27 1a 22 bb ad 92 ae bd 72 53 2f be
       -0.12524097 -0.0024734826 -0.0852407 -0.17121676
000160 55 37 27 be 4e 71 25 be a4 fc fa 3d 00 f4 68 3d
       -0.16329701 -0.16156504 0.122552186 0.05687332
000170 b1 e9 6b 3e 71 c3 8e bd bf 50 83 be 3d 95 29 bb
       0.23038365 -0.06970871 -0.25647542 -0.0025876306
000180 c3 3a ef bd 4f b6 82 be de 8b cf bd 66 78 cd 3c
       -0.1168113 -0.25529715 -0.101340994 0.025081825
000190 76 ac e0 bd 4b 0d a4 3c d4 61 ee 3c aa 4d 93 bd
       -0.10970394 0.02002587 0.029099382 -0.071925476
0001a0 ee 30 f1 3d b4 f7 8b b8 34 e5 b5 bd b9 3a 71 3d
       0.11776911 -6.674175e-05 -0.08881608 0.058893893
0001b0 0c 37 0f be 75 5b 07 be 53 3b 97 be 8b 20 34 bd
       -0.13985842 -0.13218482 -0.29537448 -0.043976348
0001c0 4b 67 6b bc da 92 04 be 8d 4c a1 be 9b 03 27 be
       -0.014367889 -0.12946644 -0.31503716 -0.16309969
0001d0 8c d3 8a be 0f 55 0d be da 66 2b 3d c2 72 92 bd
       -0.27114522 -0.13801979 0.041846134 -0.071507946
0001e0 13 a0 cc bc 63 cc 5e 3d 85 9d 65 3d b8 ad 73 be
       -0.024978673 0.054394137 0.056058425 -0.23796737
0001f0 7b c2 4d be 98 ff 23 be 9d d4 1e bd 6e 27 93 3d
       -0.2009372 -0.1601547 -0.038776983 0.07185255
000200 17 01 31 3e 5f 1b 85 3c 25 ec d0 bc a3 c2 0d 3e
       0.17285572 0.016248403 -0.025503227 0.1384378
000210 a3 ab 22 3e ba fe 8b 3d c9 c1 15 3e a8 57 85 be
       0.15885787 0.068356946 0.14624704 -0.2604344
000220 63 93 fd bd 40 1e 46 be e6 a8 0d be 2f 76 4f bd
       -0.123816274 -0.19347477 -0.13833961 -0.050649818
000230 c2 6e 2c be 1a 72 1c be 9c d0 a9 bd 05 77 17 be
       -0.16839126 -0.15277901 -0.08291742 -0.14791496
000240 ba 74 c4 be 9c 08 86 be a4 19 c6 bd 5e 31 13 be
       -0.38370305 -0.26178443 -0.09672859 -0.14374301
000250 0b f4 1c be 35 a8 a1 bc 19 ea 17 be 82 a7 59 3d
       -0.1532747 -0.019733528 -0.14835395 0.053138264
000260 cc c6 f1 3d 97 6c a9 be 10 1c d2 3d 72 59 a7 bd
       0.118054956 -0.3309066 0.10259259 -0.08171357
000270 8c 4f 54 be c2 b0 9a 3e 2b 07 48 3e f4 94 e5 bd
       -0.2073347 0.3021298 0.19533984 -0.11210051
000280 5e 02 ae 3e fe e2 66 3e 65 a3 01 3d 9a b4 8d 3c
       0.3398618 0.22547528 0.031649966 0.017298032
000290 3c 53 10 be 24 5d 3a bd f6 56 2e 3d 95 d6 9c bd
       -0.14094251 -0.045498982 0.0425634 -0.07658116
0002a0 ab ee 1e be 0a ef 31 bd 18 6a 39 be dd f0 56 bd
       -0.15520732 -0.043440856 -0.18106878 -0.0524758
0002b0 bd 88 1a be 4d 07 12 be b5 fe d1 bd 5c a6 99 bd
       -0.15091224 -0.14260598 -0.1025366 -0.07502434
0002c0 9f 3a f4 bb 58 fa d8 bd 56 89 ad bd b6 24 2b bd
       -0.0074532772 -0.10594624 -0.084734604 -0.041783057
0002d0 6a 05 3b be 01 1b 89 be 07 19 9c be 5d 30 05 be
       -0.18263784 -0.26778415 -0.30487844 -0.1300673
0002e0 82 4f 64 bd 85 a6 94 bc 6b 12 a8 bd d6 1e e1 3c
       -0.055739887 -0.018145809 -0.08206638 0.027480524
0002f0 98 b9 de 3c 7d 9e 2c 3e 7f e6 2b 3e 82 19 3c 3e
       0.027188107 0.16857333 0.16787146 0.18369105
000300 06 56 6c 3e 4c f9 23 3e 3b da 71 3e 03 ad 3e 3e
       0.2307969 0.16013068 0.23618405 0.18620686
000310 d2 67 e0 3d c0 3b 22 3e c5 53 7c be 2a 26 13 be
       0.10957302 0.15843105 -0.2464133 -0.14370027
000320 b8 32 92 be 49 d4 3c be fe ac b9 bd 5d 38 5b be
       -0.2855432 -0.18440355 -0.09066199 -0.2140822
000330 a7 53 52 be 59 30 bb bd 89 6a 58 be a6 e1 9e bd
       -0.20539723 -0.09140081 -0.2113439 -0.07757883
000340 94 43 af 3c a5 a0 41 be 0c ab 23 be 51 f7 a4 bd
       0.021394528 -0.18908937 -0.15983218 -0.08054984
000350 df 7d c3 bd 3d 49 3c be 7a 12 05 be b4 d4 0a be
       -0.095454924 -0.18387313 -0.1299533 -0.13557702
000360 88 ac 12 3e ab e7 20 3e af cc 4f 3e fe 0a 30 3e
       0.14323628 0.15713374 0.20292924 0.17191693
000370 2e 84 11 3e 3c 50 68 3e 89 b0 04 3e df 4a ae 3d
       0.14210579 0.22686857 0.12957968 0.08510374
000380 08 92 f0 3d b5 4d fb bc 93 92 59 bd 83 d4 05 3d
       0.11746603 -0.030676702 -0.0531183 0.03267337
000390 23 69 90 bd cf 34 a6 bd 94 51 28 3d 1f 23 71 bd
       -0.07051303 -0.08115541 0.041093424 -0.058871385
0003a0 2e 4d e9 bd bc ec b9 bc 12 7f 5e 3c 7e 68 6d bd
       -0.11391674 -0.022695892 0.013580101 -0.05796098
0003b0 6c 80 e5 3d d8 6c a2 bc 2a d1 2c 3d a0 39 a5 3d
       0.11206135 -0.019827291 0.042191662 0.08067632
0003c0 4d 1f 8e 3c 33 e5 b9 3c b3 93 ba 3d 26 49 38 3e
       0.01734891 0.022692299 0.09110203 0.17996654
0003d0 36 5d c8 3c 3d dd 87 3d 32 92 8b bb d5 5e ff ba
       0.024458509 0.06633995 -0.004259371 -0.0019483218
0003e0 b4 df 12 3d 4d 34 6d 3d a8 e5 64 3c 11 58 0f 3e
       0.03585787 0.057911206 0.01397077 0.13998438
0003f0 bc 25 04 bc ca 83 43 bd bf 1f ce bd e2 11 6a bb
       -0.008065637 -0.047733106 -0.10064649 -0.0035716225

encoder.2.0.bias f4 [84]
000000 2a fb 83 bc 87 18 18 3b 2c dc a4 ba 1e e8 ea 3c
       -0.016110975 0.0023207979 -0.0012577823 0.028675135
000010 28 a5 0b bc 79 a5 9c 3b fb 19 10 3d d7 0c 05 bd
       -0.008523263 0.004780468 0.035181027 -0.03248295
000020 1d 2e 00 bc 6c 7a 9f 3b ba 03 12 bb 5d bf 94 bc
       -0.007823494 0.0048668887 -0.0022280053 -0.018157655
000030 85 64 12 3c 50 e1 89 3c 59 e6 aa 3c ba c8 c5 bc
       0.008935099 0.01683107 0.020861791 -0.024143565
000040 52 75 f3 bb b5 2c c9 bc 27 71 c7 bc 87 f6 d6 3b
       -0.007429757 -0.02455745 -0.024345947 0.00656015
000050 f0 d4 b7 3c d9 7a ee bb 61 89 be 3c 9f a3 d7 bc
       0.022440404 -0.007277828 0.023258867 -0.026323138
000060 42 89 8c bc bf 3a 31 bc 41 13 ff 3c 43 53 06 3d
       -0.017155293 -0.010817229 0.03113711 0.03279425
000070 0b b8 fa bc e1 69 df 3c 42 1b 05 bd 2a 9e 88 3c
       -0.030605337 0.027272167 -0.0324967 0.016676981
000080 12 9c a9 3c 24 fd 07 bd f0 07 6d 3c 04 a2 b2 3c
       0.020704303 -0.033200398 0.0144672245 0.02180577
000090 bc c6 0f bd 16 3d 26 ba 27 42 be bc fe d3 4d bc
       -0.035101637 -0.00063415 -0.023224903 -0.01256275
0000a0 d6 e2 37 3b 78 3c 9f bc 2e 12 a2 3c 50 66 4f ba
       0.0028058789 -0.019438013 0.01978406 -0.0007911669
0000b0 d6 81 69 3c 56 9d 8b 3c 7a e3 92 3c eb dc 89 3c
       0.014252147 0.017042797 0.017930735 0.016828975
0000c0 f0 7d 08 bd 2a 25 ce bc 84 bb be bb ab 7d 0a 3d
       -0.03332323 -0.025164206 -0.0058206934 0.033811253
0000d0 b1 fa 90 ba 2e 70 00 3d de 29 08 3d 46 78 22 3c
       -0.001106104 0.031356983 0.033243053 0.009916371
0000e0 f1 91 a8 bc 5b 98 0e 3d 42 48 7c bc 22 6d 12 3d
       -0.020577403 0.034813266 -0.015398087 0.03574861
0000f0 f9 77 27 3c b9 93 00 3d 4b f2 0c 3d c7 44 e2 3c
       0.010221475 0.03139088 0.034410756 0.027620686
000100 1a 7a ad 3b 52 26 8c 3a 06 85 0a 3d 31 24 df bc
       0.0052940967 0.0010692573 0.033818267 -0.027238937
000110 f7 a9 41 3c 84 ae ba 3c a9 e8 a7 bc 92 47 ee 3a
       0.011820308 0.022788294 -0.020496683 0.0018179289
000120 77 6f b6 3c 98 cb 07 bd c3 c9 95 3c f9 49 87 3c
       0.022269947 -0.033153147 0.018284684 0.016514765
000130 7e 54 48 bb de ae 06 bd c6 2b 3b bc cb d3 23 3c
       -0.003056794 -0.03288161 -0.011424011 0.009999226
000140 d6 b7 ca bc bc 52 0f 3d cd c5 83 bc b1 fb a1 bc
       -0.024745863 0.03499101 -0.01608553 -0.019773336

encoder.2.1.weight f4 [84]
000000 97 72 6a 3f 4e 09 43 3f fd 89 64 3f 8f 77 80 3f
       0.915811 0.7618607 0.89273053 1.0036486
000010 ea c9 b5 3f 7f 12 54 3f fe 5c 6c 3f 53 29 66 3f
       1.4202244 0.8284072 0.92329395 0.89906806
000020 2c be 93 3f 57 fa 99 3f 45 42 65 3f 66 c6 5b 3f
       1.1542411 1.2029523 0.89554244 0.85849607
000030 24 43 45 3f bb b7 65 3f c0 6f 82 3f cd 2c 51 3f
       0.77055573 0.89733475 1.0190353 0.81708986
000040 77 a2 e2 3f ea 1b 6b 3f a2 de 5e 3f cd 8c 19 3f
       1.770583 0.9183947 0.8705846 0.5998047
000050 a4 73 52 3f fe 91 47 3f 90 9b 6f 3f 60 71 6f 3f
       0.82207704 0.7795714 0.93596745 0.9353237
000060 95 34 5f 3f b3 d9 61 3f 5a 8d 26 3f 20 f7 3b 3f
       0.8718961 0.8822281 0.65059435 0.7342396
000070 49 56 4d 3f 28 77 cb 3f 65 62 7b 3f 3a 16 7a 3f
       0.80209786 1.5895739 0.98197013 0.97690165
000080 5e b3 53 3f 6b 6d 7f 3f f8 8f 5b 3f 30 61 53 3f
       0.8269557 0.99776334 0.85766554 0.8257017
000090 51 29 63 3f e1 85 93 3f 5d 45 6a 3f 1c bb 7b 3f
       0.8873492 1.1525232 0.9151209 0.9833238
0000a0 36 22 3f 3f ba 34 7d 3f 92 0c 6d 3f df 7b 6a 3f
       0.74661577 0.9890858 0.92597306 0.9159526
0000b0 d5 9c 7e 3f dc ed 71 3f 77 a3 53 3f d7 41 54 3f
       0.99458057 0.9450357 0.826713 0.82912964
0000c0 7f 0c 57 3f 92 80 53 3f 83 ca 7e 3f cf b4 7a 3f
       0.8400344 0.8261806 0.9952776 0.9793214
0000d0 7d 55 40 3f 02 98 76 3f 09 23 6b 3f 55 85 5b 3f
       0.75130445 0.96325696 0.91850334 0.85750324
0000e0 e3 b3 6f 3f 40 a6 50 3f 97 b2 49 3f b5 fb 80 3f
       0.9363386 0.8150368 0.7878813 1.0076815
0000f0 4f 65 6d 3f e0 7a 7f 3f 93 b4 39 3f 4c c2 57 3f
       0.9273271 0.9979687 0.7254116 0.8428085
000100 f2 2c 47 3f d4 80 65 3f 14 40 46 3f 8d 2f 3a 3f
       0.77802956 0.896497 0.77441525 0.72728807
000110 e2 b0 52 3f 2a cf c3 3f 6e 1e 48 3f e4 9e 24 3f
       0.8230115 1.5297596 0.7817143 0.6430495
000120 40 df 58 3f 4d 96 7a 3f a3 b9 6c 3f 16 20 2b 3f
       0.8471565 0.9788559 0.9247076 0.66845834
000130 a8 fd 4a 3f 10 73 46 3f db 14 87 3f 1d 1a 57 3f
       0.792933 0.7751932 1.055324 0.8402422
000140 39 18 6d 3f c6 61 7b 3f db f7 47 3f 72 a1 89 3f
       0.92615086 0.98196065 0.7811257 1.0752394
