trained parameters/protonet_miniimagenet_5shot_5way.pt (torch, 546639 bytes, 24 tensors)

encoder.0.0.weight f4 [84, 3, 3, 3]
000000 84 a2 6b be a5 d7 cf bd fc 8b 1c 3e 6e b1 88 3d
       -0.23011214 -0.10148553 0.15287775 0.06674467
000010 91 29 fd 3d 03 40 9e 3e ac a1 40 be 79 5a 15 be
       0.12361444 0.30908212 -0.18811673 -0.14585294
000020 fd ec e6 3d 13 1d 3f 3e cd 73 92 3d c3 fe 2b be
       0.11275671 0.18663435 0.071509935 -0.16796403
000030 72 8a a4 bd 9d 9a 72 3d 55 10 92 be ae 7c cc 3d
       -0.08034219 0.059229482 -0.28528085 0.09984718
000040 11 0b 96 3d 3b 6f 21 be 3a aa 5e 3d 1b 62 1d 3e
       0.073263295 -0.15765087 0.05436156 0.15369456
000050 6e 07 8e bd 61 76 d6 bd a7 90 1a be b8 66 5c be
       -0.06935011 -0.10471798 -0.15094243 -0.21523559
000060 27 78 3e 3e 04 eb 86 3e 27 02 87 bd dd d8 9f bc
       0.18600522 0.26351178 -0.065922074 -0.019512588
000070 8e 05 ab bd 85 e1 0f be 55 33 2a be db fd aa be
       -0.08350669 -0.14050873 -0.16621144 -0.333968
000080 99 a6 13 3e 3b 59 6b be 50 d9 0e 3e 8c f8 3b bd
       0.1441902 -0.22983257 0.13950086 -0.04589133
000090 29 a1 77 3e e1 a6 cc 3c dd a9 0f bd 93 ce f1 bb
       0.24182571 0.024981918 -0.035074104 -0.007379362
0000a0 e4 30 c3 bd d8 42 7f 3e a9 56 2b 3c 1a c2 4b 3e
       -0.095308095 0.24927843 0.010457673 0.19898263
0000b0 bd e9 f1 3c f7 50 97 3d 54 e7 69 3d bf ce 86 bd
       0.0295304 0.0738849 0.057105377 -0.065824024
0000c0 c1 2e 24 be f4 9a 4e be ba f1 f7 3c de 12 06 be
       -0.1603346 -0.20176297 0.030266631 -0.13093135
0000d0 b0 e5 32 3e a3 23 96 bd 02 d4 ee bc f6 d4 11 be
       0.17470431 -0.07331016 -0.029153828 -0.14241394
0000e0 25 21 3c 3e af a1 09 be 5f 40 5f 3e 11 3d 98 3c
       0.18372019 -0.13440584 0.218019 0.018583806
0000f0 73 de 52 3d 6b 7c c3 3d cb bb 47 3d a0 01 e0 3c
       0.051481675 0.09545215 0.048763078 0.027344525
000100 cb 7a 16 bd 9f d8 a2 3e 16 4f ec bd de b7 ac 3d
       -0.0367382 0.31805894 -0.11538522 0.084335074
000110 fe e5 3e be f6 2c 1c 3e 4b 83 bf bc d6 96 a0 bd
       -0.18642423 0.15251526 -0.023378035 -0.0784127
000120 29 e1 0b 3e 71 06 2c be ce ac 76 3e b0 ba 04 3e
       0.1366011 -0.16799332 0.24089357 0.1296184
000130 90 91 8c 3d 77 70 ce bd 2e d5 2d be 8c 98 65 be
       0.06863701 -0.10080045 -0.16975853 -0.22421473
000140 ed c2 a1 3c d3 ce d4 3c e3 4f af bc 1d ab 20 3b
       0.019746268 0.025977528 -0.021400398 0.0024516054
000150 56 24 d5 3c a3 ec 13 3e ef 69 33 bd 4a d4 b2 bd
       0.026018303 0.14445738 -0.043802198 -0.08731897
000160 c3 84 31 3c af a1 b2 3c 22 dc 3a 3e ad 50 60 3e
       0.0108348755 0.021805612 0.18248037 0.21905775
000170 74 2d 40 3e 77 34 c4 bd 83 7d b9 bd 17 cc bb bd
       0.18767339 -0.095803194 -0.090571426 -0.091697864
000180 a1 5d 87 be 31 45 4f be a8 c7 37 be 0c 61 aa be
       -0.2643862 -0.20241238 -0.17947257 -0.33277166
000190 32 f4 7c be 9c 6f da bd ab 04 e8 be 10 e3 14 bf
       -0.24702528 -0.10665819 -0.4531606 -0.5815897
0001a0 e7 25 f3 3d c5 81 53 be 32 4c b4 be ef 30 3b bd
       0.11872464 -0.20654972 -0.35214382 -0.045700964
0001b0 5a 01 9a be 80 37 4b be 64 36 a2 bd 0f cf 04 be
       -0.30079156 -0.1984539 -0.079205304 -0.12969612
0001c0 ac d8 45 3e c4 70 35 3e b7 4d 8b 3d 89 ad 2a 3e
       0.19320935 0.17718798 0.06801932 0.16667761
0001d0 c0 97 f6 3d 03 67 42 3e 5c 17 78 3d f4 91 32 be
       0.12040663 0.18984608 0.060569152 -0.17438489
0001e0 27 49 2f 3e 85 c1 52 be df 93 d2 bd a7 bd 5b 3e
       0.17117749 -0.20581634 -0.102821104 0.21459065
0001f0 38 38 64 be 8f d5 8b ba 04 6f 41 3e 9b 8f 49 3e
       -0.22287071 -0.0010668504 0.18890005 0.19683687
000200 52 57 86 3e 49 26 1a bd 6d b1 e4 bc 6d bd 0f be
       0.26238495 -0.037634168 -0.027916634 -0.14037104
000210 1b 82 9d be fe 5b 76 3c 2a d2 2b be 47 fe 68 be
       -0.30763325 0.015036581 -0.1677939 -0.22753249
000220 ed 16 b6 bc 84 35 27 be 70 05 4d 3d a5 6f ac bc
       -0.022227729 -0.16329008 0.050054014 -0.02104933
000230 a4 3e 6f be 5e 49 ff bd db fd e7 bd 19 71 10 be
       -0.23363739 -0.124651656 -0.11327716 -0.14105643
000240 57 e1 26 3e 39 6f 86 bb 0e 5a aa 3e ae c4 5e 3e
       0.16296898 -0.0041026142 0.3327183 0.21754715
000250 c4 2d 18 3e df 09 74 3e df a4 ad bd 20 71 5d 3e
       0.14861208 0.2383189 -0.08478712 0.21625185
000260 19 e6 7b 3e 95 e2 e3 bd 28 3b 45 be ec 81 18 be
       0.24599494 -0.111272015 -0.19260848 -0.14893311
000270 7d 44 27 3e 87 f3 06 be 04 89 56 bd 32 ba 88 3d
       0.1633472 -0.13178836 -0.052376762 0.06676139
000280 de 62 d0 bc aa 74 34 be ad d5 06 be f9 c9 86 be
       -0.025437769 -0.17622629 -0.13167448 -0.26325968
000290 bb ea 8f be be 94 ca bd 0a 3d 10 be cd 7d f4 bd
       -0.28108773 -0.098916516 -0.14085785 -0.11938057
0002a0 fe 9e 21 be 2d b2 d7 3d 19 e4 47 3c 2f e2 46 bd
       -0.15783307 0.10532031 0.012200379 -0.04855555
0002b0 0f 36 53 3e 80 14 c6 3c e3 b1 91 3e 26 1f 58 3e
       0.2062609 0.024179697 0.2845603 0.21105632
0002c0 86 b7 69 3d a2 09 17 3e bd 09 c0 bc fd 2a 7b 3c
       0.057059787 0.14749768 -0.023442144 0.015330073
0002d0 1a b6 fe 3d 9e d9 2a be 6e 40 0f 3e f5 ad 1f 3e
       0.12437077 -0.16684577 0.13989422 0.15593703
0002e0 05 5a 1f 3e ac d1 3e 3e 3e 29 28 3d 0a dd 35 be
       0.15561683 0.18634671 0.041054957 -0.17760101
0002f0 df 8f 02 3c db ea 12 be 46 c2 c8 bb da cb 4a 3e
       0.007968872 -0.14347403 -0.006126675 0.19804326
000300 ed ca 0f be 6f e1 09 3e 31 ac 2b be b1 47 4a 3e
       -0.14042254 0.13464902 -0.16764905 0.1975391
000310 5a 46 be bd 3d 7b d8 3c cf 84 dc bc 3f bc ec bd
       -0.09290762 0.026425952 -0.026918797 -0.115593426
000320 3e 89 c9 3d 19 70 3c bd 4c 19 bf bd e5 0f 28 be
       0.0984063 -0.046005342 -0.09330997 -0.16412313
000330 ff 08 76 3e 6f 90 df bd 9a 4a 88 be c9 77 9f be
       0.24026869 -0.109162204 -0.26619416 -0.31146076
000340 85 94 c9 bd a2 33 3c 3d bd ac 58 3e 6c 7f 91 bc
       -0.09842781 0.04594768 0.21159644 -0.017760955
000350 07 cb 66 3d bf b5 ad 3e 0c 65 62 3e d6 b4 2f be
       0.056345966 0.33927724 0.22108859 -0.17158827
000360 d4 6d 04 be 97 c8 73 3e fc 9b 0f 3e 15 95 1a be
       -0.12932521 0.23806988 0.14024347 -0.15095933
000370 51 22 70 3d 29 e4 a1 3c e3 93 27 be fe 90 a4 3d
       0.058626477 0.019762116 -0.16365008 0.080354676
000380 72 6e 5a 3e 1b be 1d be 46 c6 b6 bd fd 37 3a 3c
       0.21331194 -0.1540455 -0.089245364 0.011365888
000390 77 9a 66 be 2e d2 a1 bd c1 f6 ce 3d ea 07 3b be
       -0.22519861 -0.07901417 0.10105658 -0.18264738
0003a0 01 26 ee bd 65 9b 6a bd e3 21 50 be 82 14 cb 3d
       -0.116283424 -0.057277102 -0.20325427 0.09916021
0003b0 71 8b 90 3e fd 67 32 3d 9c d7 00 be 60 80 ac 3e
       0.28231385 0.043556202 -0.12582248 0.33691692
0003c0 c4 f4 16 be e4 17 92 bd 56 1e 83 3e 04 d1 93 3d
       -0.14741808 -0.07133463 0.25609082 0.07217601
0003d0 f6 25 50 bd f7 b9 8a 3d 8c 48 8a 3c 9c 89 cb 3d
       -0.050817452 0.06773751 0.016880296 0.09938356
0003e0 8c 13 e9 bd 81 5c a4 3d 67 58 1c 3e 08 f6 42 3e
       -0.113806814 0.08025456 0.15268098 0.19039166
0003f0 bc b7 b7 bd da af f6 3d ee 04 45 3e 0d 34 2a be
       -0.089705914 0.1204526 0.19240162 -0.16621418

encoder.0.0.bias f4 [84]
000000 47 08 e5 3d 6e 53 aa 3d a5 ad 11 bd a7 2e 4e 3d
       0.111832194 0.08316694 -0.03556599 0.05033746
000010 71 5d 86 3e b2 d7 a3 3c 95 14 fa 3c 76 74 30 3e
       0.26243165 0.020000312 0.030527392 0.17231926
000020 8a 44 1a be 8c 64 19 be f2 ca 4e bd ba b2 63 3d
       -0.15065208 -0.14979762 -0.050486512 0.05559037
000030 5b 86 9e 3d a5 54 06 3e 62 fe 13 3e ed 5e 4d 3e
       0.0774047 0.13118227 0.14452508 0.20055743
000040 c8 b9 e7 bb 5a 3e 29 bd 5a 11 7a 3e 98 c7 a2 3e
       -0.0070717074 -0.04131923 0.24420682 0.31792903
000050 2b f4 c0 3c 62 6c eb 3d 70 ae b4 bc 3d f6 89 bc
       0.023553928 0.11495282 -0.022055835 -0.016841048
000060 b5 6d 10 be 2d 2d 85 ba 1d 85 71 3e 8c bf 7d be
       -0.1410435 -0.0010160558 0.23585935 -0.247801
000070 d5 2e 17 3e 43 3d 86 3c 0e 63 d4 bc a3 ac d7 bd
       0.14763959 0.016386634 -0.02592614 -0.10530975
000080 2a 64 67 3d 85 62 b2 ba 82 51 21 3e 5d 66 07 bd
       0.05649201 -0.0013609683 0.15753749 -0.033056606
000090 a7 a1 cf 3c 07 f7 51 be 5a 75 14 3e 60 b8 15 be
       0.025345637 -0.2050439 0.14497891 -0.14621115
0000a0 ad ef 64 3d 72 16 95 3d 23 7d 38 3d 74 71 31 3e
       0.055892635 0.07279672 0.045041215 0.17328435
0000b0 29 7f 9d 3d 0b b7 00 bd ba 7e bc bd 52 63 a5 bd
       0.076902695 -0.031424563 -0.09203859 -0.080755845
0000c0 79 08 c6 bd ec 22 b2 3a ce d1 27 3e be 58 2c 3e
       -0.09669585 0.001359073 0.16388628 0.16830727
0000d0 7d 61 aa 3d a0 2f 1e be db 3c 88 3d 2a 57 03 bd
       0.08319376 -0.15447855 0.06652232 -0.032065548
0000e0 ea 20 2f 3e bb 6e 90 3e 5e c8 5f 3e 01 61 34 3e
       0.171024 0.2820948 0.21853778 0.17615129
0000f0 86 8e fa 3d 58 73 b3 3d 72 a6 e8 bd 90 f8 fe 3d
       0.122342154 0.087622344 -0.11359872 0.12449753
000100 61 e0 0c 3e 0b d7 f5 3d 75 b9 1d be 40 e1 ec 3c
       0.13757469 0.12003907 -0.15402777 0.028916001
000110 1a f8 a8 bd 33 68 10 be 79 ee 6b bd 78 b3 2e bd
       -0.082504466 -0.14102249 -0.057600472 -0.042651623
000120 f6 3f ed 3b 44 13 25 be 22 38 87 3d d6 ec c7 3c
       0.0072402908 -0.1612063 0.06602503 0.024404924
000130 bc c9 a8 3d 8a fd 4c 3e 20 56 22 3e d5 a1 69 3d
       0.08241603 0.20018592 0.15853167 0.0570391
000140 0f ff 9a bd 4a 20 3e bd 64 40 51 3d bb 1f 6e be
       -0.0756818 -0.046417512 0.0510868 -0.23254292

encoder.0.1.weight f4 [84]
000000 ab 5f 58 3f 48 d5 6d 3f ad a5 2d 3f 9c f8 68 3f
       0.8452098 0.92903566 0.67830926 0.9100435
000010 53 32 8d 3f d5 a1 99 3f 48 0e 30 3f 64 b8 56 3f
       1.1030983 1.2002512 0.6877179 0.8387511
000020 09 89 86 3f 6d 2b 56 3f 1d 8c 55 3f 0d e4 2d 3f
       1.051057 0.8366001 0.8341692 0.679261
000030 2e 5a 96 3f ca 32 3a 3f 8b 66 59 3f 51 b4 86 3f
       1.1746271 0.7273375 0.84922093 1.0523778
000040 b0 2c 69 3f f6 21 38 3f dd 7d b1 3f 45 4b 44 3f
       0.9108381 0.7192682 1.3866535 0.7667735
000050 c7 da 4a 3f cb d5 65 3f 79 af 84 3f 1f 6e 65 3f
       0.7924008 0.8977935 1.036605 0.89621156
000060 c6 99 38 3f 5b 27 8e 3f ea 09 a0 3f 3e 9a 59 3f
       0.7210964 1.110576 1.2503026 0.8500098
000070 29 93 8a 3f bb e4 50 3f 83 62 5e 3f 1d 85 81 3f
       1.082616 0.81599015 0.86869067 1.0118748
000080 e0 07 44 3f 76 80 8e 3f dd 33 44 3f 35 07 78 3f
       0.76574516 1.1132953 0.7664164 0.96886
000090 c1 92 3a 3f 30 0f 42 3f f0 a3 2d 3f f0 27 bc 3f
       0.7288018 0.75804424 0.67828274 1.4699688
0000a0 69 81 8e 3f b7 db 7f 3f 12 e2 72 3f 0d dc 6d 3f
       1.1133243 0.99944633 0.94876206 0.92913896
0000b0 e8 7e 51 3f f5 41 57 3f 10 db 86 3f 8f b2 4a 3f
       0.8183427 0.8408502 1.0535603 0.7917871
0000c0 02 04 4a 3f 5f d1 60 3f b6 20 8c 3f 57 25 2e 3f
       0.78912365 0.87819475 1.0947483 0.68025726
0000d0 04 b4 a3 3f be 2a 5f 3f 6d da 5a 3f ca 52 08 3f
       1.2789311 0.87174594 0.8548954 0.53251326
0000e0 e1 39 11 3f 9c 86 46 3f 0d e8 26 3f 77 bc 61 3f
       0.5672894 0.7754915 0.6519783 0.881782
0000f0 e9 24 62 3f 81 02 4e 3f a4 97 44 3f f1 4f 73 3f
       0.8833757 0.8047257 0.76793885 0.95043856
000100 7b 64 86 3f 4e c0 6e 3f c0 24 a0 3f 18 3a b2 3f
       1.0499414 0.93262184 1.2511215 1.3923979
000110 a3 e7 86 3f 29 2b 61 3f 1e 7c 8c 3f 52 01 77 3f
       1.053944 0.8795648 1.0975378 0.9648639
000120 df d6 90 3f d6 95 5d 3f e2 03 81 3f 20 51 4a 3f
       1.1315573 0.86556756 1.007931 0.79030037
000130 b2 92 32 3f 66 7c 72 3f c1 1e 83 3f 87 13 6a 3f
       0.6975509 0.94721067 1.024376 0.91436046
000140 71 84 13 3f 9f ec 3c 3f 21 aa a4 3f f1 4d 62 3f
       0.57623965 0.73798555 1.2864419 0.8840018

encoder.0.1.bias f4 [84]
000000 7f 92 56 be 78 26 b4 bd 71 2d 92 be 8e d0 a9 be
       -0.20954321 -0.087964 -0.28550294 -0.33166927
000010 c8 23 5b be 7b e8 dc 3d 0c a9 9d be 45 c1 4d be
       -0.21400368 0.1078653 -0.30793035 -0.20093258
000020 6d b9 c2 3e 85 93 90 be f7 1c da bd 7a 43 d5 be
       0.38032094 -0.28237548 -0.10650056 -0.41653043
000030 1f 28 2f 3f b8 cb 90 be 2e 14 79 be db d8 73 be
       0.68420595 -0.28280425 -0.24324104 -0.23813193
000040 83 09 8f be 58 ad c3 be 96 c5 32 3d f7 11 1b be
       -0.27936944 -0.38218188 0.043645464 -0.15143572
000050 69 ce a0 be e7 f4 9c be b2 be b4 3e a1 1e 0f bc
       -0.31407478 -0.30655596 0.3530174 -0.00873533
000060 cd 31 e5 be 81 79 03 be 99 a3 ad 3d 08 7c 80 bd
       -0.44764557 -0.12839319 0.084784694 -0.06273657
000070 40 08 73 3d 3c 4e 39 bd f1 08 b3 be 9a 11 9d 3d
       0.05933404 -0.045240626 -0.3496776 0.07669373
000080 eb ad 1e 3e 25 e4 b0 bd d5 92 cf bd 95 4d 05 3e
       0.15496032 -0.08637265 -0.10135428 0.13017876
000090 dc 4a 85 be 16 94 b7 be 05 5c cd be 11 fc eb 3d
       -0.26033676 -0.35855168 -0.40109268 0.11522687
0000a0 a9 c6 1d 3e 48 53 fe bc 41 e8 54 3e 5d fd 1d be
       0.15407814 -0.031045571 0.20791723 -0.15428682
0000b0 72 ff b0 be 2c 2c 8a bd 4d 98 66 bc f6 92 65 be
       -0.3456989 -0.06746706 -0.014074397 -0.22419342
0000c0 c2 02 ce be 61 eb 90 be a5 41 8a 3e 78 a8 a9 be
       -0.4023648 -0.2830458 0.27003208 -0.33136344
0000d0 47 50 1f 3f 50 ae 8b 3e 2b 66 ce bd 6d a7 7d be
       0.6223187 0.27281427 -0.10078081 -0.24770899
0000e0 5c 08 c9 be 70 e8 a0 bc 2e 9d e0 be d1 97 7d be
       -0.3926419 -0.019642085 -0.4386992 -0.24764945
0000f0 94 db 9e be f1 55 e2 be 43 ba 59 bd c2 f6 be 3d
       -0.310269 -0.44206193 -0.05315615 0.09324409
000100 4e 43 c1 3e ee 3f 92 bd 2d 97 1c 3d a3 cc 9f be
       0.37746662 -0.071411 0.03823011 -0.31210813
000110 23 9b 84 3e 56 b0 27 3e 24 a2 c7 3e 97 c6 f4 bd
       0.2589961 0.1637586 0.3899089 -0.119519405
000120 a4 42 94 3e 75 86 88 bd cc 14 97 3e e0 5f 90 be
       0.28957093 -0.06666271 0.29508054 -0.28198147
000130 e9 f6 10 be 52 f7 74 bb 48 2d a8 3e e4 55 45 bc
       -0.14156689 -0.003737886 0.32847047 -0.012044404
000140 7b 19 b7 be d0 43 fd bd 2e b6 11 3c 36 c1 e7 be
       -0.35761628 -0.1236645 0.008893533 -0.45264596

encoder.0.1.running_mean f4 [84]
000000 3a 1a 98 3d 60 c2 01 be 7c df 16 3e d1 89 6e bf
       0.07426877 -0.12671804 0.1473369 -0.9317904
000010 e4 9d 7a 3e 6c 36 b8 bc a3 75 db 3d 9d d7 92 3d
       0.24474293 -0.022486888 0.10715797 0.07170031
000020 45 cd 30 be a4 34 5d bd ca 02 5f be ad 01 59 3f
       -0.17265804 -0.05400528 -0.21778408 0.8476818
000030 42 2d e5 bb 94 a8 bc be 7e 0f 0e be 5e 18 a0 3e
       -0.0069939205 -0.36847365 -0.13873097 0.3126859
000040 bf ba 93 bd 79 0b 9a bd b0 3f 84 3e b6 49 92 3e
       -0.07213353 -0.075217195 0.2582984 0.28571862
000050 c2 e2 59 be 25 ee 6f be 5b 81 2a bd e1 7c a8 bc
       -0.21277907 -0.23430689 -0.04162727 -0.02056736
000060 d6 ed 8e be aa 11 a5 3d 11 ff 76 3e a3 d1 7f be
       -0.2791583 0.0806001 0.24120738 -0.24982314
000070 1e 47 11 3e ed e2 6b bd 77 84 9e 3d 49 9c 29 be
       0.14187285 -0.05758946 0.077401094 -0.16563524
000080 0a f5 0c 39 0f 6a 00 3d e1 d7 4a 3e 83 91 91 bd
       0.00013442725 0.031351145 0.19808914 -0.07107832
000090 4a 20 02 3e 6a c6 82 be 89 05 af 3d 10 41 a0 be
       0.1270763 -0.25542003 0.085459776 -0.3129964
0000a0 78 16 9b 3d 41 14 9c 3c 07 c5 02 bd ee d5 a4 3d
       0.07572645 0.019052627 -0.03192618 0.08048616
0000b0 48 76 21 3e bf 2a 03 be a5 34 ea bd bd 20 c8 3d
       0.15767777 -0.12809275 -0.114358224 0.09771869
0000c0 ac e5 85 bf 83 c4 9f bf 3c b3 05 3e c0 8a 69 3e
       -1.0460715 -1.2481846 0.13056654 0.22806835
0000d0 20 d4 81 39 91 55 42 be fd 35 a0 3d f7 48 ca 3b
       0.00024762843 -0.18977953 0.078227974 0.006173249
0000e0 a6 cd 2a 3e 0b dd 69 3e 1c 8a b4 be b7 dd 49 3e
       0.16680011 0.22838227 -0.3526162 0.19713484
0000f0 f7 a0 c4 bd a0 30 fd be 7d b4 f2 bd ac 22 23 3d
       -0.09601014 -0.4945116 -0.11850832 0.039827988
000100 cc 31 08 3e fd 40 91 3d b9 d8 36 be c2 32 bf bb
       0.13300246 0.07092474 -0.1785611 -0.005834908
000110 c7 1f 00 be 72 47 0e be a2 2e 02 be 1d a0 38 3c
       -0.12512122 -0.13894442 -0.12713102 0.011268643
000120 21 94 de bc 95 26 a1 be 54 e1 86 3d 90 49 30 3f
       -0.027170243 -0.31474748 0.06585947 0.6886225
000130 3c 20 84 bd 0e 02 9b 3e f8 d7 06 3e 6a 94 9b bc
       -0.06451461 0.30275005 0.13168323 -0.018991668
000140 52 64 21 bd 96 6e c0 3d d7 10 58 3d 00 45 82 bf
       -0.039402314 0.093960926 0.052750435 -1.0177307

encoder.0.1.running_var f4 [84]
000000 1c b8 94 3b c5 76 c2 3c 61 f5 90 3c 13 c5 df 3e
       0.004538549 0.023738274 0.01769513 0.43705043
000010 de be 4f 3b 24 f9 86 3c 22 c3 1f 3d e2 b0 95 3c
       0.003169946 0.016476221 0.039004453 0.01827282
000020 50 6a 27 3d 0f ac 32 3d 4f f2 25 3d 41 f7 5d 3e
       0.040872872 0.04362112 0.040514287 0.21676351
000030 37 d3 f9 3c 6d 46 ef 3d 4a b5 93 3d 61 8a 25 3c
       0.030496223 0.116833545 0.072123125 0.010103793
000040 f7 d1 07 3c 0d b3 87 3c 1a 50 98 3c 5f 28 29 3d
       0.008289806 0.01656487 0.018592883 0.041298267
000050 88 69 d6 3d ea 9a f2 3d c7 66 98 3c 49 a4 24 3c
       0.10469347 0.11845954 0.018603696 0.010048934
000060 51 24 22 3c 0b 0e 33 3d 4e 62 21 3c a3 b9 dc 3c
       0.009896354 0.043714564 0.009850098 0.026943987
000070 bf b9 14 3c 91 90 9e 3c 1a 7f 83 3c d2 52 0f 3d
       0.009077488 0.019356044 0.016051818 0.034991093
000080 bd f8 6f 3c f4 b1 c8 3c c3 64 c5 3c 83 38 21 3d
       0.014646706 0.024498917 0.024095898 0.039360534
000090 29 08 22 3d a2 b6 29 3c a4 3c b0 3b 1b 9c 83 3d
       0.039558563 0.010358484 0.0053783227 0.06426259
0000a0 e4 12 bf 3c 3b f1 15 3d ec ec bb 3c 39 42 22 3c
       0.023324437 0.03660701 0.022940122 0.009903484
0000b0 59 c3 82 3d 22 5c b5 3c 3c d4 03 3c 70 3a 23 3d
       0.06384916 0.022138659 0.008046206 0.039850652
0000c0 7a a1 d4 3e 11 fc f3 3e 58 8f 34 3d e3 44 71 3c
       0.41529447 0.4765325 0.044082016 0.0147258965
0000d0 bf e0 d3 3c 90 4d 3d 3c 2a 06 b8 3c 94 e6 06 3c
       0.025864003 0.011554137 0.022463877 0.008233685
0000e0 b3 07 bd 3c d3 81 6b 3c aa fd e1 3d 7a 4f 7e 3b
       0.02307496 0.014374214 0.11034711 0.0038804696
0000f0 00 7d b4 3c bc ff 15 3e 3d 89 46 3c 72 fb 3a 3d
       0.02203226 0.14648336 0.012117681 0.045649953
000100 59 ca 8f 3c 49 02 6d 3c b2 57 52 3c 02 61 2d 3b
       0.017552542 0.014465877 0.012838291 0.0026455526
000110 63 1c 9c 3c 5c b5 0e 3d 98 0d b3 3c f8 ac 42 3c
       0.019056505 0.034840927 0.021857068 0.011882059
000120 2f c8 1b 3d 37 fe d1 3c 95 f3 98 3c 23 28 3c 3e
       0.038032707 0.025633914 0.018670836 0.18374686
000130 5f c0 fd 3c 11 e7 82 3c df 83 91 3c e5 13 e7 3c
       0.030975519 0.015979322 0.017763076 0.028207729
000140 73 93 b5 3b 33 6e 2c 3d ef 8c 8c 3c a8 a9 54 3e
       0.005541259 0.04209728 0.017157046 0.20767844

encoder.1.0.weight f4 [84, 84, 3, 3]
000000 d9 1c bd bd ec 53 85 bd d8 ff b7 bd 1c 59 23 bd
       -0.09234018 -0.065101475 -0.08984345 -0.039879903
000010 00 0d 3d bd c3 a4 4b bd ad 08 21 be ae 94 86 bd
       -0.046154976 -0.049717676 -0.15725966 -0.06571327
000020 88 d3 45 bb 3d e2 77 bd eb a0 bf bc 88 26 06 bc
       -0.0030185897 -0.060518492 -0.023392161 -0.0081878975
000030 53 2e 0b bb 5d e6 31 bd e6 11 11 bd 32 b1 b2 bd
       -0.0021237328 -0.043432582 -0.03541746 -0.087252036
000040 23 bf 6c bd 28 cd 1f 3c 0c 57 19 be 46 01 20 be
       -0.05779947 0.009753503 -0.14974612 -0.15625486
000050 8c 5e 17 be 89 ec 05 be da 62 07 be 90 9f b3 bd
       -0.1478216 -0.13078512 -0.13221303 -0.087706685
000060 84 90 bd bd 23 48 f4 bd 64 74 4d bd 76 6b f0 3c
       -0.0925608 -0.119278215 -0.050159827 0.029348116
000070 97 58 f6 bc 6d 4c c0 bc 36 a8 b6 bc 27 f6 59 bc
       -0.03007154 -0.023473943 -0.022297006 -0.013303316
000080 c8 a1 42 bd bd 7e 36 bc 47 50 12 bd 1f 3c 07 bd
       -0.047517568 -0.011138615 -0.03572109 -0.03301632
000090 74 9c d8 bd 41 a5 dc bd bb 20 c9 bd c7 35 d2 bd
       -0.10576716 -0.10773707 -0.09820696 -0.102641635
0000a0 c1 8b 64 bd 3c 40 3d bb 21 4a 01 be 91 a8 82 bd
       -0.055797342 -0.0028877398 -0.12625934 -0.06379808
0000b0 d4 9d 12 bd 99 a3 6b bd 70 e6 02 bd 09 3e 0e bd
       -0.035795048 -0.057529066 -0.031958044 -0.03472713
0000c0 d1 fc 81 bd 82 e3 f9 bd 20 a4 04 be dc 4a e0 bd
       -0.06347049 -0.12201597 -0.12953234 -0.10951778
0000d0 07 8c cd bd aa 4e 01 be 9d 52 69 bc 39 f5 20 3d
       -0.10036474 -0.12627664 -0.014240888 0.039296363
0000e0 48 53 fc 3c 7d c5 ac 3c d6 16 fb bc 13 10 9f 3b
       0.03080143 0.021090264 -0.030650537 0.004854211
0000f0 40 8c f8 ba 30 20 5c 3d 91 e0 7f 3d 9c 0a ea 3d
       -0.0018962696 0.053741634 0.062470023 0.11427805
000100 fb 47 a6 3d 21 13 d3 3d 5b 76 00 3d c1 9c 55 3d
       0.08119198 0.10306383 0.031362873 0.052151445
000110 89 bc 20 3d ef 84 84 bc 15 65 21 3d e6 4c b7 3c
       0.0392423 -0.016176669 0.03940304 0.022375535
000120 47 81 97 bd 41 a7 8e bc 32 4b 12 bd 7f 71 18 be
       -0.073977046 -0.017413737 -0.035716243 -0.14887045
000130 66 bb 65 bd 3d dd b8 bd da b4 8f bd 8f b8 79 bd
       -0.05608692 -0.09026573 -0.070169166 -0.060967024
000140 03 af a7 bc 61 9b 36 be b0 48 16 be b2 94 08 be
       -0.020469194 -0.1783271 -0.14676166 -0.13337973
000150 03 3e 4b be 5a c1 3d be ff 0a 2e be 58 5c 03 be
       -0.19847874 -0.18530789 -0.16996382 -0.12828195
000160 02 60 1a be 23 f2 10 be b7 01 99 bd 41 8f ae bc
       -0.15075687 -0.14154868 -0.0747103 -0.021308543
000170 3d dd bf bd 10 30 0a be a6 db 0c be a6 71 16 be
       -0.0936837 -0.13494897 -0.13755664 -0.14691791
000180 68 5e e0 bd 7b 07 d2 bd 36 72 f0 bd 2f 4c 8f 3b
       -0.109555066 -0.10255333 -0.11740534 0.0043730955
000190 24 7d 49 3d 33 4b d2 b9 cb cc 4c 3d d7 34 1e 3d
       0.04919161 -0.0004011035 0.049999993 0.03862461
0001a0 b2 44 cf 3c 62 1a 83 3c 7b 14 bb 3c 0f 98 75 3b
       0.025301311 0.016003791 0.022836914 0.0037474667
0001b0 e5 d8 b7 bc 54 44 58 bc 12 ed 32 bb c3 8d 79 bd
       -0.02244229 -0.013199884 -0.002730195 -0.06092621
0001c0 39 12 37 bc 1f 75 ea bc be b4 97 3a 59 b9 c2 3c
       -0.011173778 -0.0286203 0.0011574251 0.023770021
0001d0 20 3c 81 bc 18 76 de bc 71 0d c3 bc 68 8b a1 bb
       -0.01577574 -0.02715592 -0.02381012 -0.0049299486
0001e0 09 a5 a4 3c 1f c3 b3 3c 28 d7 00 3d 96 77 55 3d
       0.020098226 0.021943627 0.03145519 0.052116
0001f0 d3 e0 af 3d 6d 80 89 3d 46 31 2d bd a5 de 53 bd
       0.08587804 0.067139484 -0.04228332 -0.051726002
000200 3a 66 45 bd 32 db c8 bd c4 fe 75 bd 97 a8 c2 bd
       -0.048193194 -0.09807433 -0.060057417 -0.09504812
000210 33 33 0c be 91 ca bb bd c0 65 d2 bd 78 8f 5f be
       -0.13691406 -0.09169496 -0.102733135 -0.21832073
000220 80 e7 5c be 57 08 46 be bc 99 40 be 66 10 63 be
       -0.21572685 -0.19339119 -0.18808645 -0.22174224
000230 a4 f2 81 be 82 2f 38 be 61 83 2d be d2 94 1e be
       -0.25380433 -0.17986873 -0.16944648 -0.15486458
000240 73 f8 8d bd e5 7d cc bd 39 8d 18 be 93 62 17 be
       -0.069321536 -0.0998495 -0.14897622 -0.14783697
000250 c4 24 3a be 98 80 5e be a6 62 25 be 7c c9 f6 bd
       -0.18178087 -0.21728742 -0.16150913 -0.12050149
000260 ba 93 36 be 9e 97 8c 3c 4b 03 54 3d 0e be 3e ba
       -0.1782979 0.01716214 0.051760953 -0.0007276245
000270 36 32 92 bb 8f 00 26 3c 98 b1 4c 3c d5 83 28 bd
       -0.004461552 0.010131969 0.0124935135 -0.04114135
000280 d3 e6 8f 3d 85 75 3e bc 5a c7 43 3e 31 d2 28 3e
       0.07026448 -0.0116246985 0.19119015 0.16486432
000290 a9 17 11 3e 4e 8c b7 3d 87 4a 67 3d 60 fe ae 3d
       0.14169182 0.08962308 0.05646756 0.08544612
0002a0 cd 2d e1 3d ef 8a 36 3e 73 31 34 3e 2a f8 75 3d
       0.10995064 0.17826436 0.17596988 0.06005112
0002b0 aa 08 9a 3d 45 18 82 3d dd c7 80 3d bd c2 bf 3c
       0.07521184 0.06352285 0.06288121 0.023408288
0002c0 bb 53 b7 3d 1e 0d db 3d b3 84 62 3d 3a 04 e7 3d
       0.08951517 0.10695861 0.055302333 0.11280103
0002d0 ee 4f 42 be ff 12 81 be 4b 20 6f be 31 f5 7a bd
       -0.18975803 -0.25209805 -0.23352163 -0.06126899
0002e0 6b a0 04 be b4 d0 22 be b4 68 11 be 79 aa 2a be
       -0.1295182 -0.15899926 -0.14200097 -0.16666593
0002f0 60 26 21 be 3e 33 9e bd 25 d0 d5 bd ec c9 b1 bd
       -0.15737295 -0.077246174 -0.10440091 -0.08681092
000300 35 66 f0 bd f8 fa e2 bd a1 84 a2 bd e0 01 2a be
       -0.117382444 -0.11083025 -0.07935453 -0.16602278
000310 57 6c 45 be aa 4e 20 be 81 bd 10 3d fa 3f f9 3c
       -0.1927961 -0.15655008 0.035336975 0.030426014
000320 47 64 60 3d 21 41 34 bd 06 ab d7 bc 89 64 be 3c
       0.054783132 -0.044007424 -0.026326668 0.023241298
000330 38 e3 0b bd 62 45 bf bc 1c 91 25 3d 46 e8 3a bd
       -0.03415224 -0.023348514 0.04042159 -0.04563167
000340 8f 8c 77 bd 64 f2 8e 3b be ae 1c bd e3 bc 37 bd
       -0.06043678 0.0043623913 -0.038252585 -0.04485787
000350 2b a3 2a bd 0f 5b f1 bd 45 89 23 bd c6 2c 06 bd
       -0.041659515 -0.11784946 -0.039925832 -0.032757543
000360 98 2f 88 bd 3b 8a 3f bd 34 d2 4f bc 6b e5 37 bd
       -0.06649703 -0.046762686 -0.012684394 -0.044896524
000370 ec b7 1e bd ca 28 d9 3c b8 0b a7 bd 0e 4d bf bd
       -0.03874962 0.026508708 -0.08156532 -0.09340869
000380 ed 3a 55 bd e1 9a 65 be 82 59 da bd af b0 fe bd
       -0.05205815 -0.22422363 -0.106616035 -0.124360435
000390 cf 24 77 be 87 e7 55 be eb 85 6f be db 1d 8c be
       -0.24135135 -0.20889102 -0.2339093 -0.27366528
0003a0 a9 57 90 be b1 cf 80 be 3d ec e4 b6 bf 0b 0d bd
       -0.2819188 -0.25158456 -6.8224313e-06 -0.03443503
0003b0 e4 d6 84 bd 38 82 82 bd cf b2 28 bd 14 38 7d bd
       -0.064863 -0.063724935 -0.04118615 -0.06182106
0003c0 b2 c4 bf bd 98 62 e2 bc af 4e 03 be b9 f8 87 3d
       -0.093636885 -0.027634904 -0.12822984 0.06639237
0003d0 28 6b a3 3d ab 05 72 3d 30 2e 2f bd 73 92 a9 bc
       0.07979423 0.059087437 -0.042768657 -0.020699715
0003e0 da 1a bb bb 82 77 fa 3d b5 50 1d 3e cd a0 de 3d
       -0.005709988 0.122298256 0.15362819 0.10870514
0003f0 10 64 ca bd 95 62 0d be 85 17 08 be 46 90 5f bd
       -0.09882367 -0.13807137 -0.13290222 -0.05458095

encoder.1.0.bias f4 [84]
000000 4c bc 10 bd be ec 18 3b 8b 9c 55 3c 78 de 36 3c
       -0.035335824 0.0023334469 0.013037811 0.011161439
000010 6f 62 a1 bc e6 35 ef 3c 1e 18 b7 ba 3a de 41 bd
       -0.019700257 0.029200505 -0.001396898 -0.047331072
000020 0b fa 2e bb 19 4e 38 bd 60 3c 23 3c 09 4a 8c bc
       -0.002669933 -0.044996355 0.009963125 -0.017125146
000030 10 98 20 bc b7 06 c6 bc c4 0d 6b 3d 86 82 31 3d
       -0.0098018795 -0.024173124 0.057386175 0.043337367
000040 9b 4b 79 3c 44 35 af 3c 5b da 5f 3a 6a 60 49 3d
       0.01521578 0.021387704 0.00085393124 0.049164213
000050 84 9d cf bb 96 cf 97 3c 6a e7 9d bb f0 e7 3c bd
       -0.006335916 0.018531602 -0.0048188465 -0.04611963
000060 8f b5 1c 3d c1 26 da 3c 2d 30 71 bc f0 bb 2d bd
       0.038259085 0.026629807 -0.014720959 -0.04241556
000070 3e d5 a2 3c 62 87 34 bc 82 2b cc bc a1 92 39 3c
       0.019877072 -0.011018606 -0.02492309 0.011326463
000080 7a a7 8d 3c 81 cf a8 bc a7 c1 65 3b 96 a9 05 3d
       0.017291773 -0.020606758 0.0035058053 0.032632433
000090 0a cf e8 3b ae 1c c8 3c 6d f6 05 bc 80 1a a0 3c
       0.007104759 0.024427738 -0.008176428 0.019543886
0000a0 39 d6 0c bd 7c 72 fd bc c0 b6 01 3d 38 82 da bb
       -0.034383986 -0.03093838 0.031668425 -0.0066683553
0000b0 01 dc 4f 3c 41 b4 5d bb a1 f9 9d bc 3b 2c d2 bc
       0.01268673 -0.0033829364 -0.019284071 -0.025655856
0000c0 2a ff 76 3c 64 2b 12 3d 15 b2 cc bc 6e b2 21 bc
       0.015075484 0.03568591 -0.02498726 -0.009869201
0000d0 74 cf 7d bc b0 8a 84 3b 6d 3f 06 3d 94 4a 92 3c
       -0.015491355 0.004044853 0.03277533 0.017857827
0000e0 1c 2c c0 bc 6c 9f 2f 3c fe 5a eb 3c 62 55 21 3d
       -0.023458533 0.0107191615 0.028729912 0.039388068
0000f0 f0 c6 8f 3c ea 86 0c bd 1e 62 45 bc ed 2d 46 3b
       0.017550915 -0.03430835 -0.012047319 0.0030239776
000100 b5 72 9c 3c 7a bf 36 bd 7a 86 b5 3c 4d 6d c2 3c
       0.019097665 -0.0446162 0.02215885 0.02373376
000110 f3 3d 1f bd b8 1e 8e bc 2d b2 4e bc 8d 34 b0 3c
       -0.03887744 -0.017348632 -0.012615723 0.021509433
000120 29 a6 4d 3c 1b 45 8a 3c 44 1c ff bc 21 d2 90 bc
       0.012551823 0.016878655 -0.031141408 -0.017678322
000130 a2 b1 63 bc b1 c3 a6 ba 82 33 97 bc df 84 42 bc
       -0.013897331 -0.0012723116 -0.018457178 -0.011872499
000140 0f 23 6c bb d9 94 3a bb dd 91 bf 3c 21 93 d3 3c
       -0.0036031639 -0.0028470068 0.023384983 0.025826992

encoder.1.1.weight f4 [84]
000000 43 06 3e 3f 95 e3 71 3f 5d 82 4a 3f 65 9c 5a 3f
       0.74228305 0.9448789 0.7910517 0.8539489
000010 d2 08 7f 3f e0 d2 87 3f ab 4b 7c 3f 34 d0 83 3f
       0.99622834 1.0611229 0.9855296 1.0297914
000020 d7 69 6a 3f 8b de 27 3f 12 72 9c 3f 35 e0 80 3f
       0.9156775 0.6557395 1.2222311 1.0068423
000030 02 57 98 3f bc 2f 8e 3f 65 76 81 3f 45 d7 8b 3f
       1.1901553 1.1108317 1.0114256 1.092507
000040 86 c2 86 3f 96 0c 3d 3f 32 bd 7e 3f 49 73 86 3f
       1.0528114 0.7384733 0.9950744 1.0503932
000050 c1 a6 5e 3f b2 59 57 3f 05 3a 9b 3f 35 69 72 3f
       0.86973196 0.8412124 1.2127081 0.94691783
000060 de 99 85 3f 27 0c 4e 3f 94 b0 9d 3f d8 e1 80 3f
       1.0437582 0.80487293 1.2319512 1.0068922
000070 16 a6 54 3f cb 4f a2 3f 9d c0 71 3f ca f1 44 3f
       0.8306593 1.2680601 0.9443453 0.7693144
000080 e5 33 5e 3f ac 1a 7d 3f f7 f6 71 3f 19 67 8c 3f
       0.86797935 0.98868823 0.94517463 1.0968963
000090 18 ba ac 3f bd cd 95 3f 5c 51 87 3f ee 0b 6e 3f
       1.3494291 1.1703411 1.0571704 0.92986953
0000a0 b3 68 33 3f 25 3b 1d 3f ce cc 2f 3f 92 b4 9e 3f
       0.70081633 0.6141837 0.6867188 1.2398856
0000b0 80 1a 7a 3f fa 9e 85 3f 72 0a 3d 3f e7 85 6a 3f
       0.97696686 1.0439141 0.73844063 0.9161057
0000c0 0f a4 7a 3f 30 92 39 3f e0 55 82 3f 5a 4e 3c 3f
       0.97906584 0.7248869 1.0182457 0.73557055
0000d0 f4 c1 55 3f d3 29 81 3f 86 09 2b 3f 88 d4 86 3f
       0.83499074 1.0090889 0.66811407 1.0533609
0000e0 49 68 66 3f bc 53 3e 3f 7a f6 51 3f 32 9d 3e 3f
       0.90002877 0.7434652 0.8201672 0.7445861
0000f0 d6 87 3b 3f d1 c7 8c 3f 81 1a 81 3f bf d4 8b 3f
       0.73254144 1.0998479 1.0086213 1.09243
000100 df 20 36 3f 3e 52 93 3f d9 a9 55 3f 3e c9 7d 3f
       0.7114391 1.1509473 0.8346229 0.99135196
000110 ee fd 41 3f 92 b7 0f 3f 3f 3f 94 3f 76 1a 7f 3f
       0.7577809 0.5613948 1.1581801 0.9964975
000120 9f 91 6d 3f 79 ea 84 3f b8 db 83 3f 16 2d 4d 3f
       0.92800325 1.0384055 1.0301428 0.8014692
000130 a6 70 9d 3f 0f eb 5a 3f 9c 2d 9b 3f 89 e0 72 3f
       1.2300003 0.8551492 1.2123294 0.94873863
000140 c4 7f 8c 3f 66 2b 3b 3f 2b 15 47 3f 7d 1d 82 3f
       1.0976491 0.73113096 0.77766675 1.0165249

encoder.1.1.bias f4 [84]
000000 56 41 f6 be 5f 10 a8 be ab 28 91 be 97 00 1c be
       -0.48096722 -0.3282499 -0.2835134 -0.152346
000010 d6 99 63 be 2e 49 81 be b5 73 e1 be 1d 3b a8 be
       -0.22226653 -0.25251144 -0.4403359 -0.328576
000020 c1 a3 7a be d1 7f ed be 93 84 90 be 46 7c bf be
       -0.2447653 -0.4638658 -0.28226146 -0.373995
000030 93 cd 64 be 74 1e 7d be f9 33 3a be c4 bb 16 be
       -0.22344045 -0.24718648 -0.18183888 -0.14720064
000040 df b6 a2 be 77 37 bc be dc 23 02 bf 17 37 61 be
       -0.31780145 -0.36761066 -0.5083597 -0.21993671
000050 86 95 bb be e5 e2 f2 be 33 64 e4 be 9b e6 19 be
       -0.36637515 -0.47438732 -0.44607696 -0.15029375
000060 6a f6 a5 be d6 ac e0 be 1b c6 b0 be b9 1b b3 be
       -0.32414562 -0.43881863 -0.34526142 -0.34982088
000070 61 83 58 be d2 02 8b be f2 7d 8b be c8 fa 0b bf
       -0.21143867 -0.2715059 -0.27244526 -0.54679537
000080 f5 b1 12 be 01 bf 97 be 1d 4f 74 be 23 73 be be
       -0.14325698 -0.29637912 -0.23858304 -0.37197217
000090 08 fe 35 3e 0b 90 59 be 52 71 21 be 3e d4 0c be
       0.17772686 -0.21246354 -0.15765885 -0.13752839
0000a0 07 92 cb be 0f 91 26 bf c1 3a e3 be 3e 73 b2 be
       -0.39759848 -0.6506509 -0.44380763 -0.34853548
0000b0 ea 9b 89 be 64 df 9e be 4f 6f b2 be ca 03 9d be
       -0.26876765 -0.3102981 -0.34850547 -0.30666953
0000c0 bf 68 5a be 3b e7 c6 be a6 bc f9 be 0f 48 d9 be
       -0.2132902 -0.3884829 -0.4877674 -0.4243779
0000d0 8e 64 4f be 2f a2 46 be 88 c0 dd be e1 30 08 be
       -0.20253202 -0.19397806 -0.43310952 -0.13299896
0000e0 de 09 b6 be 86 f1 b5 be dc 85 98 be 3e f9 b4 be
       -0.35554403 -0.3553583 -0.29789627 -0.35346407
0000f0 2f a6 08 bf d7 45 bc be 0f ce e9 bd dc 1e b5 be
       -0.53378576 -0.36772034 -0.11416256 -0.35375106
000100 0f e5 f1 be 1b 3e a9 be 92 d2 a2 be 54 2d 20 be
       -0.4724507 -0.33055195 -0.31801277 -0.15642291
000110 05 88 af be 50 d6 dd be 7f f9 9d bc b7 f9 27 be
       -0.34283462 -0.4332757 -0.019284008 -0.16403852
000120 dd 74 a3 be 86 c1 33 be cf a3 c0 be a1 6c c1 be
       -0.31925097 -0.17554292 -0.37624976 -0.3777819
000130 96 9d d1 be cc f8 53 be 76 01 f3 be 36 ba ac be
       -0.4094054 -0.20700377 -0.47462052 -0.33735818
000140 8e f9 5e be 68 f2 87 be 22 8f ad be 03 19 cd bd
       -0.21774885 -0.2655213 -0.33898264 -0.10014536

encoder.1.1.running_mean f4 [84]
000000 5d 2e 04 c1 ab a9 e8 c0 b4 8f 3a bf 98 26 31 c1
       -8.261319 -7.2707114 -0.72875524 -11.071922
000010 86 73 86 c0 58 33 90 bf 2a 62 4e c1 8b a9 8b c1
       -4.201602 -1.1265669 -12.898966 -17.457785
000020 a4 b1 ee c0 68 29 dc 3f d0 06 85 c0 81 39 de c0
       -7.4591846 1.7200136 -4.1570816 -6.9445195
000030 77 0b 4c c0 af 5b fb c0 1a be d2 c0 35 aa 93 c0
       -3.1881998 -7.854942 -6.5857058 -4.614527
000040 24 65 44 c0 2f b3 c3 bf 2c da c0 c0 f3 ba 40 c1
       -3.0686731 -1.5289057 -6.0266323 -12.045642
000050 6e 6c 64 c0 0e 81 97 c0 01 be c6 c0 98 ce c3 bf
       -3.569118 -4.7345037 -6.210694 -1.5297422
000060 50 d9 fc c0 81 54 ad 40 df 1a e5 c0 99 09 0a c0
       -7.9015274 5.4165654 -7.15953 -2.1568358
000070 7c 47 f1 c0 8c 92 c5 c0 ab c5 e1 c0 1b 8a 47 c0
       -7.539976 -6.174139 -7.0553794 -3.1178043
000080 f4 45 ad c0 c9 95 b2 c1 97 66 ef c0 3f dc dd c0
       -5.414789 -22.323137 -7.481273 -6.9331355
000090 0b 7a 60 c0 76 fa 04 c1 2d d3 51 3f 3b 00 83 bf
       -3.507449 -8.311148 0.81962854 -1.0234445
0000a0 09 ce e6 bf da 65 c1 40 86 74 ba bf 7a a5 e9 bf
       -1.8031627 6.043683 -1.456681 -1.8253624
0000b0 0d 28 92 bf fd cf d9 c0 40 0e 39 40 bd f5 0d 41
       -1.1418473 -6.806639 2.8914948 8.872495
0000c0 be e2 19 c1 17 d1 d8 bf 9c 9d 76 c1 5c e5 98 c0
       -9.617857 -1.6938809 -15.413479 -4.777998
0000d0 c7 36 98 c0 2c a2 39 c0 b6 48 2c 40 83 a7 a5 c0
       -4.7566867 -2.9005232 2.691938 -5.176698
0000e0 1f 57 91 c0 6c 72 17 c1 23 ca f7 bf 55 0b e9 c0
       -4.541885 -9.465435 -1.9358562 -7.2826333
0000f0 e2 cb d5 c0 4d 81 92 c0 23 ba b3 c0 10 87 ea bf
       -6.681138 -4.578284 -5.616472 -1.8322468
000100 f0 ab 17 c0 ba 9b 86 c0 15 ce 62 40 8c 73 d9 40
       -2.3698692 -4.2065096 3.5438282 6.795355
000110 d9 05 83 40 9f 34 91 bf 3d 00 97 c0 02 e8 b6 c0
       4.094464 -1.1344184 -4.718779 -5.7158213
000120 4a 3f 7f c0 76 72 1e c1 68 e2 53 c0 0d 02 ac bf
       -3.9882379 -9.902945 -3.3106937 -1.3438126
000130 52 87 81 c0 93 c8 f4 bf b9 00 42 c0 6e 3a 5f c0
       -4.0477686 -1.912371 -3.031294 -3.4879413
000140 b5 86 c2 c0 46 b3 5a c0 a3 3a f6 3f e4 af 36 c1
       -6.0789437 -3.417192 1.9236645 -11.417942

encoder.1.1.running_var f4 [84]
000000 c7 92 5d 42 b5 20 4d 42 3a 0b 1d 42 55 5b 98 42
       55.393337 51.28194 39.260963 76.17838
000010 14 20 27 42 6d 74 02 42 55 64 f3 42 52 9c 0b 43
       41.781326 32.613697 121.69596 139.61063
000020 8e 6a 3a 42 83 37 01 42 bf 7b 0d 42 8c 73 41 42
       46.604057 32.30421 35.370846 48.36284
000030 eb e2 39 42 dd e9 0b 42 db 7f 25 42 65 f9 47 42
       46.4716 34.978382 41.37486 49.99355
000040 4f f0 0f 42 a8 50 23 42 48 8d d9 41 6a 5e 8b 42
       35.984676 40.828766 27.193985 69.6844
000050 d9 7f 00 42 d7 ea f5 41 79 fa f0 41 95 8f cf 41
       32.12485 30.739668 30.122301 25.945108
000060 9b 67 87 42 60 8b 2b 42 df d8 16 42 22 b7 8d 41
       67.702354 42.88611 37.71179 17.71442
000070 f1 3c 64 42 36 ea 3f 42 d7 cf 17 42 1b 80 b1 41
       57.059513 47.97872 37.95297 22.187551
000080 74 b6 25 42 57 f7 3d 43 ae 86 30 42 42 97 97 42
       41.428177 189.96617 44.131523 75.795425
000090 05 91 62 42 2f eb 8f 42 f6 47 8f 41 5d 0a c3 41
       56.64162 71.95934 17.910137 24.38006
0000a0 3d fc cb 41 ca bd 17 42 76 0d b3 41 02 8a 5d 42
       25.498163 37.93534 22.381573 55.384773
0000b0 91 0f c1 41 e8 9e 29 42 4c db 06 42 c5 55 51 42
       24.1326 42.40518 33.714157 52.33376
0000c0 de 8b 54 42 a2 f6 f1 41 5b 57 03 43 a0 69 18 42
       53.13659 30.245426 131.34123 38.10315
0000d0 88 71 12 42 d1 67 14 42 36 f7 89 41 75 7a 1e 42
       36.61087 37.101383 17.245708 39.619587
0000e0 55 59 06 42 46 7f 4f 42 b6 fc 10 42 0e a6 33 42
       33.58724 51.87429 36.246788 44.912163
0000f0 11 7e 20 42 82 e6 6e 42 20 65 46 42 c8 d1 19 42
       40.12311 59.725105 49.598755 38.454865
000100 c4 c2 0c 42 33 c1 07 42 d2 51 b3 41 6e e6 11 42
       35.1902 33.93867 22.414951 36.47503
000110 9e cc d8 41 65 0d de 41 05 30 42 42 cc bf 6c 42
       27.09991 27.75654 48.546894 59.1873
000120 24 b2 45 42 61 68 7b 42 4b fc 32 42 cb b1 b9 41
       49.423965 62.851933 44.74638 23.211813
000130 9c 2b 52 42 fc fe ed 41 0e 69 2e 42 33 7d 53 42
       52.542587 29.749504 43.602592 52.872265
000140 65 48 06 42 d0 f2 1e 42 a1 b3 bd 41 c2 89 88 42
       33.570698 39.73712 23.71271 68.26906

encoder.2.0.weight f4 [84, 84, 3, 3]
000000 3b b5 1c be 28 93 78 bd a7 6e 3a be 66 8c b4 3c
       -0.15303509 -0.060687214 -0.18206273 0.022039603
000010 1c a6 09 3e 0b aa a5 3d 92 e1 89 3d f1 c6 d5 3d
       0.13442272 0.08089074 0.06732477 0.10438336
000020 bc 64 2f 3d 95 9d 32 3e bd 38 af bd fa 26 2b be
       0.042820677 0.17442925 -0.08555744 -0.16714087
000030 85 4b a6 3d 97 a6 dc bd d3 db 15 be 5f 66 71 b9
       0.08119873 -0.10773962 -0.14634638 -0.00023021687
000040 ed b7 3f be 28 0a 16 be 96 95 ef bd 11 79 83 bc
       -0.18722506 -0.14652312 -0.11698453 -0.01604894
000050 18 98 63 3d 8c e7 9d 3d 69 d7 06 3e 7f 06 da 3d
       0.05556497 0.0771018 0.1316811 0.1064577
000060 92 6f 2d 3d 98 c0 fb 3d 48 c2 ad 3d fb ee 9c 3b
       0.04234273 0.12292594 0.08484322 0.004789231
000070 18 53 04 be 6f 10 2a be 55 b7 11 bd 3e 5b eb bd
       -0.12922323 -0.16607831 -0.03557523 -0.114920124
000080 ae 34 c9 bd c3 8f cf bd 2c 3c e3 bd fb 7b 10 be
       -0.09824501 -0.10134842 -0.11095461 -0.14109795
000090 15 0b 29 bc a9 8d 69 3d 5c 64 9f 3d fb df c9 3d
       -0.010317584 0.057019863 0.07782814 0.09857174
0000a0 55 92 87 3d 51 bc ca 3c 6d 2d c2 3d 56 f3 ea 3d
       0.066197075 0.024748 0.094813205 0.11472194
0000b0 25 0b 76 3c ed b3 b1 3d 7e 25 84 3c c1 df 9e 3c
       0.0150173055 0.08676896 0.016131159 0.019393804
0000c0 ca db 21 3e 5c c0 c2 bc 79 25 90 bd 11 cd db 3d
       0.15806499 -0.023773365 -0.07038397 0.10732473
0000d0 40 ae 88 bd ab 23 76 bd 55 70 1d bd ae 16 fb 3c
       -0.066738605 -0.06009261 -0.038437206 0.030650463
0000e0 83 ee 16 3d a1 ac 38 3c 77 87 ab 3d 7c 73 5f 3d
       0.036848556 0.011271627 0.08375447 0.054553494
0000f0 4b 15 db 3c 5d 90 8c 3d 1d e0 c7 3c 4d d7 90 bd
       0.026743552 0.068634726 0.024398858 -0.07072315
000100 b1 ce 20 bd 1b 7e 29 bd 2c a7 94 3d 21 23 e7 3d
       -0.039259616 -0.04138003 0.07258448 0.11285997
000110 9b e3 4c 3d c0 54 33 bd 33 5b 49 bc ab ac 8a bd
       0.05002175 -0.043781996 -0.01228981 -0.06771215
000120 1d 07 e1 bd 63 09 59 be 3d 08 12 be 62 b8 05 be
       -0.10987685 -0.21194987 -0.14260955 -0.13058618
000130 92 e7 22 be 4f d1 1f be b2 47 12 be 3d 27 34 be
       -0.1590865 -0.15607189 -0.14285162 -0.17593093
000140 bd 64 57 be ee ff 20 be f8 5b 27 bd 38 a8 ba bd
       -0.21034522 -0.1572263 -0.040859193 -0.091141164
000150 c8 dc 39 bd 50 a3 10 3d b4 12 0c 3e ef e1 16 be
       -0.04537657 0.035311997 0.1367901 -0.14734624
000160 71 bd ab 3c f0 62 6c 3d 3a cd 1c be df 55 54 bd
       0.020964356 0.05771154 -0.15312663 -0.051839706
000170 1c 11 82 bc 82 2b 19 be 08 d2 50 bd 5c 14 5a 3d
       -0.015877299 -0.14958003 -0.05098155 0.053242072
000180 45 47 bc bd 35 a8 6e 3c 60 8c d4 3c 8a 6a 94 bc
       -0.09193281 0.014566471 0.025945842 -0.018117208
000190 48 42 ca bc c8 3e d1 bd 04 14 09 3d 98 1c 13 3e
       -0.024689808 -0.10217053 0.033466354 0.14366376
0001a0 34 65 8a 3d d8 18 3a bd e0 e7 70 3d 6e 85 15 3c
       0.06757584 -0.04543385 0.058814883 0.00912605
0001b0 67 72 1c be 99 57 1c be 61 a4 1b be 5f e3 7b bd
       -0.15278016 -0.15267791 -0.15199424 -0.061496135
0001c0 88 91 36 bd bc d7 91 bd d6 45 af bd 9f 9e 90 bc
       -0.044572383 -0.07121226 -0.08558242 -0.017653761
0001d0 ce d0 ab bd 4a b1 ce bc 04 59 b0 3d b9 2c f2 3d
       -0.08389436 -0.025231022 0.086107284 0.118249364
0001e0 98 fa 8a 3d a5 9b 39 3e 90 07 27 3e b0 cf c0 bd
       0.06786078 0.1812578 0.16311479 -0.09414613
0001f0 96 22 35 bd f1 55 ad 3d 82 3d fb 3c ef d1 a8 bc
       -0.044222437 0.08463658 0.030668978 -0.020607917
000200 3c 8e 99 3d 1b 59 d0 3b bf 81 e5 3c e0 6d e6 3d
       0.07497832 0.0063582784 0.02801597 0.11251426
000210 48 19 d0 3d 2e e2 e8 3d 5e 32 52 3e 57 5f fc bd
       0.10161072 0.11371265 0.20527026 -0.12322872
000220 bd 4f b4 bd bc 22 35 be de 0e cf bd 53 b5 c9 bd
       -0.08804271 -0.17689031 -0.101102576 -0.09849038
000230 09 3d 90 be 26 46 d5 bd b8 f6 7c be 2b c3 c5 be
       -0.28171566 -0.104137704 -0.2470349 -0.38625464
000240 ac fc d2 3c 9e b1 80 b7 a6 aa 3b bd d8 64 c4 3c
       0.025755249 -1.5341499e-05 -0.04581704 0.023973867
000250 33 7f 17 bc 92 94 9c 3c 9e 94 dc bd 66 39 af bd
       -0.009246635 0.019113813 -0.10770534 -0.0855587
000260 8c d0 1d be 1d 2d a4 3d 0b 23 fb bd 9d fa dd bd
       -0.15411586 0.08016417 -0.12262543 -0.10838816
000270 25 31 00 3e 65 b0 af bd b6 32 25 be aa db a2 3c
       0.12518747 -0.085785665 -0.16132626 0.019880135
000280 b3 47 b8 bd 4e 09 f6 bc 16 26 22 bd 30 b4 f6 3d
       -0.089980505 -0.030033734 -0.039587103 0.12046087
000290 e2 64 7a 3e 66 aa ac 3d c9 b1 f3 3d 03 a7 0e 3e
       0.24452546 0.084309384 0.11899144 0.13930897
0002a0 2a 1c 4f 3e 72 0e 80 3e ad f4 91 3e 8a 67 35 bd
       0.20225587 0.2501102 0.28506985 -0.044288196
0002b0 6c 7c 22 3c a8 3a 2f 3d 84 1f a0 3c c5 b5 10 3e
       0.00991736 0.04278055 0.019546278 0.1413184
0002c0 ce 7f 39 3e a9 01 7b bd 42 1b 24 3d 20 8e 9b 3a
       0.1811516 -0.06128088 0.040065058 0.0011867918
0002d0 b1 38 df bd 2f a8 a1 bd 53 66 e5 bc 5a 86 a2 bc
       -0.10899485 -0.078934066 -0.028002894 -0.019839454
0002e0 15 52 05 be 28 8c c4 3c 48 a4 05 be 9f 25 1b bd
       -0.13019593 0.023992613 -0.1305095 -0.037877675
0002f0 2b 4e 29 3b 89 ca 0c be e0 e1 63 bb a4 8a e6 3d
       0.0025833945 -0.13749136 -0.0034772083 0.11256912
000300 e0 25 84 bb be 6d 96 3d ab ea 83 3d 22 48 b4 3d
       -0.0040328354 0.073451504 0.06441244 0.08802821
000310 a6 3f 29 3e 9d 31 1b 3e 01 16 64 3d 42 16 b5 bc
       0.16528186 0.15155645 0.055685047 -0.02210534
000320 27 1a 99 3d d7 63 2a 3d 30 04 06 3d 2d 2f 36 3c
       0.07475691 0.04159912 0.032718837 0.011119646
000330 42 34 0a bc e9 40 07 bd d7 37 13 be 84 b7 53 3d
       -0.008435311 -0.033020888 -0.1437677 0.051688686
000340 db 38 9c bc 4a 7c 35 bc 68 5d e4 3c 40 90 1c bc
       -0.01907008 -0.011076996 0.02787657 -0.009555876
000350 c9 ee 13 bd 2e ee c5 bc 9d 73 d0 bc 20 73 73 bd
       -0.036116395 -0.024161424 -0.025445754 -0.059435964
000360 19 60 6e bc dd 32 8a bd 05 77 ca 3c fb 60 9f 3d
       -0.014549279 -0.06747983 0.024714956 0.077821694
000370 12 bf 1a 3c 2d 47 59 3d 2d 26 11 3d 9b a4 78 3c
       0.009444969 0.053046394 0.035436798 0.015175964
000380 5e bb a4 3d 31 6c 15 3d 41 35 2a 3d f5 48 83 bd
       0.0804355 0.036480132 0.041554693 -0.064104
000390 17 01 68 3d 03 70 81 bc 53 3b 2a bd ff d8 24 3c
       0.056641664 -0.015800482 -0.041560482 0.0100615015
0003a0 16 b7 21 bc 33 c4 df 3c 5a 97 11 bd 35 b0 80 bd
       -0.009870311 0.027315235 -0.03554473 -0.06283609
0003b0 49 c7 0a 3e 10 85 af 3d 9d 26 8a 3d fc 34 22 3e
       0.13552584 0.085703015 0.06745646 0.15840524
0003c0 33 87 3e 3d 5e aa c0 bb 2d a0 d3 3d b1 e1 26 3c
       0.046515655 -0.0058796844 0.103332855 0.010185645
0003d0 3d 42 d8 3c 5b 9f a0 3d db 27 09 3d 7c 7b 41 3d
       0.026398772 0.07842895 0.033485275 0.047236905
0003e0 3d 13 94 3d df 70 87 bc 55 1e e2 3d 7d 28 85 3d
       0.07230232 -0.016533313 0.110409416 0.06501863
0003f0 a5 3f 78 bd 5a 33 2c bd 47 c2 41 be f4 e4 08 be
       -0.06060757 -0.04204116 -0.18921767 -0.13368589

encoder.2.0.bias f4 [84]
000000 6b 25 e7 bc e9 85 18 bd d9 d7 32 bc 86 b9 5c 3c
       -0.028216084 -0.03723708 -0.01091572 0.013471967
000010 dc 36 86 bd 0a c7 67 3b e9 96 4f bc 28 de be 3b
       -0.06553432 0.003536644 -0.012670257 0.005824823
000020 87 eb 94 39 1f 8a d1 3c ca 50 2b 3d cb 09 a7 3c
       0.0002840424 0.025578557 0.041825093 0.020390412
000030 cd 36 f4 bb 57 75 31 3d 68 36 a9 bc 6a de d7 3c
       -0.007452822 0.043324795 -0.020655826 0.026351172
000040 e1 fd f3 3c c3 4b 8a 3c 2b a1 14 3d fe 36 3f 3c
       0.029784145 0.01688183 0.036286514 0.011670826
000050 2d 36 be bc 10 c5 01 3d 39 4f 16 bd 2f 4c c9 bb
       -0.023219192 0.031682074 -0.036696646 -0.006143115
000060 66 0e e5 3b fb 74 8f 3c b0 fd c3 3c f1 9e e5 ba
       0.006990242 0.017511835 0.023924679 -0.0017518682
000070 6f 18 3c bb 9e 26 ec 3c 1b b2 9c 3c 24 bd c7 3b
       -0.0028701087 0.028827008 0.019127896 0.0060955454
000080 dd b1 9f 3c a0 47 17 bd 21 ef 11 bc ed a2 ed 3c
       0.019493992 -0.03693354 -0.00890711 0.029008353
000090 65 59 05 bd bd 82 0c 3c 0e 37 06 bd 11 7d 25 3d
       -0.032555956 0.008576092 -0.032767348 0.040402476
0000a0 a1 cf a1 3b c8 72 24 bd 0d 8e 8e 3b 4c 51 9f 3c
       0.0049380814 -0.040148526 0.00435043 0.019447945
0000b0 24 aa bb bb b2 cf 10 3d df 00 1a bc 88 93 f3 bb
       -0.0057270695 0.035354324 -0.009399622 -0.0074333586
0000c0 b9 9b 06 bd 2f 29 91 3c 2c ac b2 3c ec bd 1c bd
       -0.032863352 0.017719833 0.021810614 -0.03826706
0000d0 34 c6 d6 3b 09 a1 02 bd df f0 97 bc 88 3b 87 bc
       0.0065543894 -0.031891856 -0.018547473 -0.016507879
0000e0 0f be 10 bd d8 89 de bc 17 c6 37 3c 8e e8 29 bc
       -0.035337504 -0.027165338 0.011216662 -0.010370387
0000f0 c3 d0 03 3d 71 9e 33 bc c8 74 42 bd a5 d6 49 bd
       0.032181513 -0.010963068 -0.047474653 -0.049276967
000100 4d 06 d8 3b 97 f5 4d 3c 03 5f 14 3c 30 91 53 bd
       0.006592548 0.01257076 0.009055856 -0.051652133
000110 74 f9 e9 bc a6 55 d9 bc cb c1 f8 3c 06 1b 9e bc
       -0.028561331 -0.026530098 0.030365845 -0.019299995
000120 b0 82 e6 bb 51 07 11 bc 4c c6 fe 3c dd a4 c1 3a
       -0.007034622 -0.008851842 0.031100415 0.0014773865
000130 65 fd 4b 3d 70 ef e4 bc 1b ba 02 bd d2 6e 2a 3d
       0.049802203 -0.027946204 -0.031915765 0.041609593
000140 36 7c af bc 34 8a da 3b 15 92 e2 bb 27 6a d5 bc
       -0.021421533 0.006669307 -0.006914387 -0.026051594

encoder.2.1.weight f4 [84]
000000 e5 16 67 3f 70 03 8d 3f f4 e4 64 3f 00 a8 42 3f
       0.9026931 1.1016674 0.89411855 0.760376
000010 86 5d 82 3f a1 68 43 3f 9c 91 82 3f 0c 14 9b 3f
       1.0184791 0.76331526 1.0200686 1.2115493
000020 29 45 6c 3f c4 5b 69 3f 6c b1 72 3f a1 70 70 3f
       0.9229303 0.9115565 0.94801974 0.9392186
000030 11 79 80 3f 3a 56 77 3f 3a 48 59 3f b1 03 5c 3f
       1.0036947 0.96615946 0.84875834 0.8594313
000040 43 95 6b 3f ca 91 56 3f f8 5e 6e 3f 05 6f 60 3f
       0.9202463 0.83816206 0.9311366 0.876694
000050 a0 97 4d 3f 29 17 6e 3f ef 3b 67 3f 1c 43 69 3f
       0.80309486 0.9300409 0.90325826 0.91118026
000060 81 e3 8c 3f b9 95 a0 3f 53 b0 75 3f 52 ed 8a 3f
       1.1006929 1.2545692 0.95972174 1.0853674
000070 6b 52 68 3f 40 4a 71 3f 1c 85 72 3f c6 86 5f 3f
       0.9075076 0.9425392 0.9473436 0.8731502
000080 a2 23 76 3f 0a 2f 79 3f 0d 77 81 3f 59 42 74 3f
       0.9614812 0.973374 1.0114456 0.9541374
000090 03 31 81 3f 18 28 4c 3f a8 f5 6e 3f 99 25 83 3f
       1.0093082 0.7974868 0.9334359 1.0245849
0000a0 1a f4 6f 3f 2d a4 55 3f 52 03 5b 3f f6 e2 50 3f
       0.93731844 0.8345364 0.8555194 0.81596315
0000b0 ef e7 72 3f 10 fe 82 3f 9d 49 47 3f 37 a6 81 3f
       0.9488515 1.0233784 0.778467 1.012885
0000c0 1a 06 94 3f 50 74 6a 3f 0c 08 5f 3f 40 f7 84 3f
       1.1564362 0.9158373 0.87121654 1.0387955
0000d0 e1 2d 65 3f a9 bd 72 3f ec d8 83 3f bd d4 85 3f
       0.8952313 0.9482065 1.0300574 1.0455548
0000e0 66 16 61 3f 90 49 66 3f 04 e0 46 3f bf 24 83 3f
       0.879248 0.89956 0.7768557 1.0245589
0000f0 aa c4 95 3f b0 2c 6c 3f 4c d5 7e 3f cb 97 81 3f
       1.1700642 0.9225569 0.99544215 1.0124449
000100 38 8a 79 3f c7 65 77 3f 8d f9 71 3f 76 df 79 3f
       0.9747653 0.96639675 0.9452141 0.976066
000110 a0 b6 65 3f 24 75 60 3f e3 58 9c 3f bf 8e 8f 3f
       0.8973179 0.8767874 1.2214626 1.1215438
000120 42 cd 7e 3f 8c 51 86 3f bb b3 87 3f f9 a1 7e 3f
       0.9953195 1.0493636 1.0601724 0.994659
000130 e0 ed 7b 3f 55 84 87 3f f5 98 89 3f 1c dd 9a 3f
       0.98409843 1.058726 1.0749804 1.2098727
000140 70 44 7a 3f 1e 4a 85 3f 50 4a 7f 3f 9c 97 61 3f
       0.9776068 1.0413244 0.99722767 0.8812196
